<?xml version="1.0" ?>
<net name="face-reidentification-retail-0095" version="10">
	<layers>
		<layer id="0" name="1163116515476" type="Const" version="opset1">
			<data element_type="f16" offset="0" shape="1,256,1,1" size="512"/>
			<output>
				<port id="0" precision="FP16">
					<dim>1</dim>
					<dim>256</dim>
					<dim>1</dim>
					<dim>1</dim>
				</port>
			</output>
		</layer>
		<layer id="1" name="2948295215125" type="Const" version="opset1">
			<data element_type="f16" offset="512" shape="" size="2"/>
			<output>
				<port id="0" precision="FP16"/>
			</output>
		</layer>
		<layer id="2" name="2949295315392" type="Const" version="opset1">
			<data element_type="f16" offset="514" shape="" size="2"/>
			<output>
				<port id="0" precision="FP16"/>
			</output>
		</layer>
		<layer id="3" name="2950295415443" type="Const" version="opset1">
			<data element_type="f16" offset="512" shape="" size="2"/>
			<output>
				<port id="0" precision="FP16"/>
			</output>
		</layer>
		<layer id="4" name="2951295514291" type="Const" version="opset1">
			<data element_type="f16" offset="514" shape="" size="2"/>
			<output>
				<port id="0" precision="FP16"/>
			</output>
		</layer>
		<layer id="5" name="2088209214165" type="Const" version="opset1">
			<data element_type="f16" offset="516" shape="1,512,1,1" size="1024"/>
			<output>
				<port id="0" precision="FP16">
					<dim>1</dim>
					<dim>512</dim>
					<dim>1</dim>
					<dim>1</dim>
				</port>
			</output>
		</layer>
		<layer id="6" name="2089209314909" type="Const" version="opset1">
			<data element_type="f16" offset="1540" shape="1,512,1,1" size="1024"/>
			<output>
				<port id="0" precision="FP16">
					<dim>1</dim>
					<dim>512</dim>
					<dim>1</dim>
					<dim>1</dim>
				</port>
			</output>
		</layer>
		<layer id="7" name="2090209414975" type="Const" version="opset1">
			<data element_type="f16" offset="516" shape="1,512,1,1" size="1024"/>
			<output>
				<port id="0" precision="FP16">
					<dim>1</dim>
					<dim>512</dim>
					<dim>1</dim>
					<dim>1</dim>
				</port>
			</output>
		</layer>
		<layer id="8" name="2091209514342" type="Const" version="opset1">
			<data element_type="f16" offset="1540" shape="1,512,1,1" size="1024"/>
			<output>
				<port id="0" precision="FP16">
					<dim>1</dim>
					<dim>512</dim>
					<dim>1</dim>
					<dim>1</dim>
				</port>
			</output>
		</layer>
		<layer id="9" name="3858386214822" type="Const" version="opset1">
			<data element_type="f16" offset="2564" shape="" size="2"/>
			<output>
				<port id="0" precision="FP16"/>
			</output>
		</layer>
		<layer id="10" name="3859386314813" type="Const" version="opset1">
			<data element_type="f16" offset="2566" shape="" size="2"/>
			<output>
				<port id="0" precision="FP16"/>
			</output>
		</layer>
		<layer id="11" name="3860386414621" type="Const" version="opset1">
			<data element_type="f16" offset="2564" shape="" size="2"/>
			<output>
				<port id="0" precision="FP16"/>
			</output>
		</layer>
		<layer id="12" name="3861386514225" type="Const" version="opset1">
			<data element_type="f16" offset="2566" shape="" size="2"/>
			<output>
				<port id="0" precision="FP16"/>
			</output>
		</layer>
		<layer id="13" name="1798180214024" type="Const" version="opset1">
			<data element_type="f16" offset="2568" shape="" size="2"/>
			<output>
				<port id="0" precision="FP16"/>
			</output>
		</layer>
		<layer id="14" name="1799180315854" type="Const" version="opset1">
			<data element_type="f16" offset="2570" shape="" size="2"/>
			<output>
				<port id="0" precision="FP16"/>
			</output>
		</layer>
		<layer id="15" name="1800180415260" type="Const" version="opset1">
			<data element_type="f16" offset="2568" shape="" size="2"/>
			<output>
				<port id="0" precision="FP16"/>
			</output>
		</layer>
		<layer id="16" name="1801180514801" type="Const" version="opset1">
			<data element_type="f16" offset="2570" shape="" size="2"/>
			<output>
				<port id="0" precision="FP16"/>
			</output>
		</layer>
		<layer id="17" name="2238224214129" type="Const" version="opset1">
			<data element_type="f16" offset="2572" shape="" size="2"/>
			<output>
				<port id="0" precision="FP16"/>
			</output>
		</layer>
		<layer id="18" name="2239224314723" type="Const" version="opset1">
			<data element_type="f16" offset="2574" shape="" size="2"/>
			<output>
				<port id="0" precision="FP16"/>
			</output>
		</layer>
		<layer id="19" name="2240224413796" type="Const" version="opset1">
			<data element_type="f16" offset="2572" shape="" size="2"/>
			<output>
				<port id="0" precision="FP16"/>
			</output>
		</layer>
		<layer id="20" name="2241224513997" type="Const" version="opset1">
			<data element_type="f16" offset="2574" shape="" size="2"/>
			<output>
				<port id="0" precision="FP16"/>
			</output>
		</layer>
		<layer id="21" name="2738274215605" type="Const" version="opset1">
			<data element_type="f16" offset="2576" shape="" size="2"/>
			<output>
				<port id="0" precision="FP16"/>
			</output>
		</layer>
		<layer id="22" name="2739274316259" type="Const" version="opset1">
			<data element_type="f16" offset="2578" shape="" size="2"/>
			<output>
				<port id="0" precision="FP16"/>
			</output>
		</layer>
		<layer id="23" name="2740274415917" type="Const" version="opset1">
			<data element_type="f16" offset="2576" shape="" size="2"/>
			<output>
				<port id="0" precision="FP16"/>
			</output>
		</layer>
		<layer id="24" name="2741274514528" type="Const" version="opset1">
			<data element_type="f16" offset="2578" shape="" size="2"/>
			<output>
				<port id="0" precision="FP16"/>
			</output>
		</layer>
		<layer id="25" name="3088309215533" type="Const" version="opset1">
			<data element_type="f16" offset="2580" shape="" size="2"/>
			<output>
				<port id="0" precision="FP16"/>
			</output>
		</layer>
		<layer id="26" name="3089309314399" type="Const" version="opset1">
			<data element_type="f16" offset="2582" shape="" size="2"/>
			<output>
				<port id="0" precision="FP16"/>
			</output>
		</layer>
		<layer id="27" name="3090309415785" type="Const" version="opset1">
			<data element_type="f16" offset="2580" shape="" size="2"/>
			<output>
				<port id="0" precision="FP16"/>
			</output>
		</layer>
		<layer id="28" name="3091309515494" type="Const" version="opset1">
			<data element_type="f16" offset="2582" shape="" size="2"/>
			<output>
				<port id="0" precision="FP16"/>
			</output>
		</layer>
		<layer id="29" name="2028203214600" type="Const" version="opset1">
			<data element_type="f16" offset="2584" shape="" size="2"/>
			<output>
				<port id="0" precision="FP16"/>
			</output>
		</layer>
		<layer id="30" name="2029203314018" type="Const" version="opset1">
			<data element_type="f16" offset="2586" shape="" size="2"/>
			<output>
				<port id="0" precision="FP16"/>
			</output>
		</layer>
		<layer id="31" name="2030203415905" type="Const" version="opset1">
			<data element_type="f16" offset="2584" shape="" size="2"/>
			<output>
				<port id="0" precision="FP16"/>
			</output>
		</layer>
		<layer id="32" name="2031203515146" type="Const" version="opset1">
			<data element_type="f16" offset="2586" shape="" size="2"/>
			<output>
				<port id="0" precision="FP16"/>
			</output>
		</layer>
		<layer id="33" name="3198320215440" type="Const" version="opset1">
			<data element_type="f16" offset="2572" shape="" size="2"/>
			<output>
				<port id="0" precision="FP16"/>
			</output>
		</layer>
		<layer id="34" name="3199320313883" type="Const" version="opset1">
			<data element_type="f16" offset="2588" shape="" size="2"/>
			<output>
				<port id="0" precision="FP16"/>
			</output>
		</layer>
		<layer id="35" name="3200320413991" type="Const" version="opset1">
			<data element_type="f16" offset="2572" shape="" size="2"/>
			<output>
				<port id="0" precision="FP16"/>
			</output>
		</layer>
		<layer id="36" name="3201320516106" type="Const" version="opset1">
			<data element_type="f16" offset="2588" shape="" size="2"/>
			<output>
				<port id="0" precision="FP16"/>
			</output>
		</layer>
		<layer id="37" name="2208221214867" type="Const" version="opset1">
			<data element_type="f16" offset="2590" shape="1,256,1,1" size="512"/>
			<output>
				<port id="0" precision="FP16">
					<dim>1</dim>
					<dim>256</dim>
					<dim>1</dim>
					<dim>1</dim>
				</port>
			</output>
		</layer>
		<layer id="38" name="2209221314144" type="Const" version="opset1">
			<data element_type="f16" offset="3102" shape="1,256,1,1" size="512"/>
			<output>
				<port id="0" precision="FP16">
					<dim>1</dim>
					<dim>256</dim>
					<dim>1</dim>
					<dim>1</dim>
				</port>
			</output>
		</layer>
		<layer id="39" name="2210221413838" type="Const" version="opset1">
			<data element_type="f16" offset="2590" shape="1,256,1,1" size="512"/>
			<output>
				<port id="0" precision="FP16">
					<dim>1</dim>
					<dim>256</dim>
					<dim>1</dim>
					<dim>1</dim>
				</port>
			</output>
		</layer>
		<layer id="40" name="2211221515983" type="Const" version="opset1">
			<data element_type="f16" offset="3102" shape="1,256,1,1" size="512"/>
			<output>
				<port id="0" precision="FP16">
					<dim>1</dim>
					<dim>256</dim>
					<dim>1</dim>
					<dim>1</dim>
				</port>
			</output>
		</layer>
		<layer id="41" name="1808181215740" type="Const" version="opset1">
			<data element_type="f16" offset="3614" shape="" size="2"/>
			<output>
				<port id="0" precision="FP16"/>
			</output>
		</layer>
		<layer id="42" name="1809181314300" type="Const" version="opset1">
			<data element_type="f16" offset="3616" shape="" size="2"/>
			<output>
				<port id="0" precision="FP16"/>
			</output>
		</layer>
		<layer id="43" name="1810181415680" type="Const" version="opset1">
			<data element_type="f16" offset="3614" shape="" size="2"/>
			<output>
				<port id="0" precision="FP16"/>
			</output>
		</layer>
		<layer id="44" name="1811181515719" type="Const" version="opset1">
			<data element_type="f16" offset="3616" shape="" size="2"/>
			<output>
				<port id="0" precision="FP16"/>
			</output>
		</layer>
		<layer id="45" name="3778378215491" type="Const" version="opset1">
			<data element_type="f16" offset="3618" shape="" size="2"/>
			<output>
				<port id="0" precision="FP16"/>
			</output>
		</layer>
		<layer id="46" name="3779378316247" type="Const" version="opset1">
			<data element_type="f16" offset="3620" shape="" size="2"/>
			<output>
				<port id="0" precision="FP16"/>
			</output>
		</layer>
		<layer id="47" name="3780378415989" type="Const" version="opset1">
			<data element_type="f16" offset="3618" shape="" size="2"/>
			<output>
				<port id="0" precision="FP16"/>
			</output>
		</layer>
		<layer id="48" name="3781378515338" type="Const" version="opset1">
			<data element_type="f16" offset="3620" shape="" size="2"/>
			<output>
				<port id="0" precision="FP16"/>
			</output>
		</layer>
		<layer id="49" name="2048205215581" type="Const" version="opset1">
			<data element_type="f16" offset="2572" shape="" size="2"/>
			<output>
				<port id="0" precision="FP16"/>
			</output>
		</layer>
		<layer id="50" name="2049205315800" type="Const" version="opset1">
			<data element_type="f16" offset="3622" shape="" size="2"/>
			<output>
				<port id="0" precision="FP16"/>
			</output>
		</layer>
		<layer id="51" name="2050205413856" type="Const" version="opset1">
			<data element_type="f16" offset="2572" shape="" size="2"/>
			<output>
				<port id="0" precision="FP16"/>
			</output>
		</layer>
		<layer id="52" name="2051205514501" type="Const" version="opset1">
			<data element_type="f16" offset="3622" shape="" size="2"/>
			<output>
				<port id="0" precision="FP16"/>
			</output>
		</layer>
		<layer id="53" name="1948195213925" type="Const" version="opset1">
			<data element_type="f16" offset="3624" shape="" size="2"/>
			<output>
				<port id="0" precision="FP16"/>
			</output>
		</layer>
		<layer id="54" name="1949195315101" type="Const" version="opset1">
			<data element_type="f16" offset="3626" shape="" size="2"/>
			<output>
				<port id="0" precision="FP16"/>
			</output>
		</layer>
		<layer id="55" name="1950195414567" type="Const" version="opset1">
			<data element_type="f16" offset="3624" shape="" size="2"/>
			<output>
				<port id="0" precision="FP16"/>
			</output>
		</layer>
		<layer id="56" name="1951195514930" type="Const" version="opset1">
			<data element_type="f16" offset="3626" shape="" size="2"/>
			<output>
				<port id="0" precision="FP16"/>
			</output>
		</layer>
		<layer id="57" name="2528253216283" type="Const" version="opset1">
			<data element_type="f16" offset="3628" shape="" size="2"/>
			<output>
				<port id="0" precision="FP16"/>
			</output>
		</layer>
		<layer id="58" name="2529253316181" type="Const" version="opset1">
			<data element_type="f16" offset="3630" shape="" size="2"/>
			<output>
				<port id="0" precision="FP16"/>
			</output>
		</layer>
		<layer id="59" name="2530253414492" type="Const" version="opset1">
			<data element_type="f16" offset="3628" shape="" size="2"/>
			<output>
				<port id="0" precision="FP16"/>
			</output>
		</layer>
		<layer id="60" name="2531253514489" type="Const" version="opset1">
			<data element_type="f16" offset="3630" shape="" size="2"/>
			<output>
				<port id="0" precision="FP16"/>
			</output>
		</layer>
		<layer id="61" name="3728373214378" type="Const" version="opset1">
			<data element_type="f16" offset="3632" shape="" size="2"/>
			<output>
				<port id="0" precision="FP16"/>
			</output>
		</layer>
		<layer id="62" name="3729373314192" type="Const" version="opset1">
			<data element_type="f16" offset="3634" shape="" size="2"/>
			<output>
				<port id="0" precision="FP16"/>
			</output>
		</layer>
		<layer id="63" name="3730373415866" type="Const" version="opset1">
			<data element_type="f16" offset="3632" shape="" size="2"/>
			<output>
				<port id="0" precision="FP16"/>
			</output>
		</layer>
		<layer id="64" name="3731373514558" type="Const" version="opset1">
			<data element_type="f16" offset="3634" shape="" size="2"/>
			<output>
				<port id="0" precision="FP16"/>
			</output>
		</layer>
		<layer id="65" name="3278328215041" type="Const" version="opset1">
			<data element_type="f16" offset="3636" shape="" size="2"/>
			<output>
				<port id="0" precision="FP16"/>
			</output>
		</layer>
		<layer id="66" name="3279328314918" type="Const" version="opset1">
			<data element_type="f16" offset="3638" shape="" size="2"/>
			<output>
				<port id="0" precision="FP16"/>
			</output>
		</layer>
		<layer id="67" name="3280328415122" type="Const" version="opset1">
			<data element_type="f16" offset="3636" shape="" size="2"/>
			<output>
				<port id="0" precision="FP16"/>
			</output>
		</layer>
		<layer id="68" name="3281328515839" type="Const" version="opset1">
			<data element_type="f16" offset="3638" shape="" size="2"/>
			<output>
				<port id="0" precision="FP16"/>
			</output>
		</layer>
		<layer id="69" name="3048305214354" type="Const" version="opset1">
			<data element_type="f16" offset="3640" shape="1,256,1,1" size="512"/>
			<output>
				<port id="0" precision="FP16">
					<dim>1</dim>
					<dim>256</dim>
					<dim>1</dim>
					<dim>1</dim>
				</port>
			</output>
		</layer>
		<layer id="70" name="3049305315881" type="Const" version="opset1">
			<data element_type="f16" offset="4152" shape="1,256,1,1" size="512"/>
			<output>
				<port id="0" precision="FP16">
					<dim>1</dim>
					<dim>256</dim>
					<dim>1</dim>
					<dim>1</dim>
				</port>
			</output>
		</layer>
		<layer id="71" name="3050305414861" type="Const" version="opset1">
			<data element_type="f16" offset="3640" shape="1,256,1,1" size="512"/>
			<output>
				<port id="0" precision="FP16">
					<dim>1</dim>
					<dim>256</dim>
					<dim>1</dim>
					<dim>1</dim>
				</port>
			</output>
		</layer>
		<layer id="72" name="3051305514531" type="Const" version="opset1">
			<data element_type="f16" offset="4152" shape="1,256,1,1" size="512"/>
			<output>
				<port id="0" precision="FP16">
					<dim>1</dim>
					<dim>256</dim>
					<dim>1</dim>
					<dim>1</dim>
				</port>
			</output>
		</layer>
		<layer id="73" name="3818382215806" type="Const" version="opset1">
			<data element_type="f16" offset="4664" shape="" size="2"/>
			<output>
				<port id="0" precision="FP16"/>
			</output>
		</layer>
		<layer id="74" name="3819382314804" type="Const" version="opset1">
			<data element_type="f16" offset="4666" shape="" size="2"/>
			<output>
				<port id="0" precision="FP16"/>
			</output>
		</layer>
		<layer id="75" name="3820382414678" type="Const" version="opset1">
			<data element_type="f16" offset="4664" shape="" size="2"/>
			<output>
				<port id="0" precision="FP16"/>
			</output>
		</layer>
		<layer id="76" name="3821382516199" type="Const" version="opset1">
			<data element_type="f16" offset="4666" shape="" size="2"/>
			<output>
				<port id="0" precision="FP16"/>
			</output>
		</layer>
		<layer id="77" name="3848385213943" type="Const" version="opset1">
			<data element_type="f16" offset="2572" shape="" size="2"/>
			<output>
				<port id="0" precision="FP16"/>
			</output>
		</layer>
		<layer id="78" name="3849385315644" type="Const" version="opset1">
			<data element_type="f16" offset="4668" shape="" size="2"/>
			<output>
				<port id="0" precision="FP16"/>
			</output>
		</layer>
		<layer id="79" name="3850385415290" type="Const" version="opset1">
			<data element_type="f16" offset="2572" shape="" size="2"/>
			<output>
				<port id="0" precision="FP16"/>
			</output>
		</layer>
		<layer id="80" name="3851385514186" type="Const" version="opset1">
			<data element_type="f16" offset="4668" shape="" size="2"/>
			<output>
				<port id="0" precision="FP16"/>
			</output>
		</layer>
		<layer id="81" name="1868187215758" type="Const" version="opset1">
			<data element_type="f16" offset="4670" shape="" size="2"/>
			<output>
				<port id="0" precision="FP16"/>
			</output>
		</layer>
		<layer id="82" name="1869187314327" type="Const" version="opset1">
			<data element_type="f16" offset="4672" shape="" size="2"/>
			<output>
				<port id="0" precision="FP16"/>
			</output>
		</layer>
		<layer id="83" name="1870187414999" type="Const" version="opset1">
			<data element_type="f16" offset="4670" shape="" size="2"/>
			<output>
				<port id="0" precision="FP16"/>
			</output>
		</layer>
		<layer id="84" name="1871187515077" type="Const" version="opset1">
			<data element_type="f16" offset="4672" shape="" size="2"/>
			<output>
				<port id="0" precision="FP16"/>
			</output>
		</layer>
		<layer id="85" name="3648365215641" type="Const" version="opset1">
			<data element_type="f16" offset="4674" shape="" size="2"/>
			<output>
				<port id="0" precision="FP16"/>
			</output>
		</layer>
		<layer id="86" name="3649365313979" type="Const" version="opset1">
			<data element_type="f16" offset="4676" shape="" size="2"/>
			<output>
				<port id="0" precision="FP16"/>
			</output>
		</layer>
		<layer id="87" name="3650365413766" type="Const" version="opset1">
			<data element_type="f16" offset="4674" shape="" size="2"/>
			<output>
				<port id="0" precision="FP16"/>
			</output>
		</layer>
		<layer id="88" name="3651365515410" type="Const" version="opset1">
			<data element_type="f16" offset="4676" shape="" size="2"/>
			<output>
				<port id="0" precision="FP16"/>
			</output>
		</layer>
		<layer id="89" name="2078208214240" type="Const" version="opset1">
			<data element_type="f16" offset="4678" shape="" size="2"/>
			<output>
				<port id="0" precision="FP16"/>
			</output>
		</layer>
		<layer id="90" name="2079208316001" type="Const" version="opset1">
			<data element_type="f16" offset="4680" shape="" size="2"/>
			<output>
				<port id="0" precision="FP16"/>
			</output>
		</layer>
		<layer id="91" name="2080208416175" type="Const" version="opset1">
			<data element_type="f16" offset="4678" shape="" size="2"/>
			<output>
				<port id="0" precision="FP16"/>
			</output>
		</layer>
		<layer id="92" name="2081208515911" type="Const" version="opset1">
			<data element_type="f16" offset="4680" shape="" size="2"/>
			<output>
				<port id="0" precision="FP16"/>
			</output>
		</layer>
		<layer id="93" name="2868287214843" type="Const" version="opset1">
			<data element_type="f16" offset="4682" shape="" size="2"/>
			<output>
				<port id="0" precision="FP16"/>
			</output>
		</layer>
		<layer id="94" name="2869287315341" type="Const" version="opset1">
			<data element_type="f16" offset="4684" shape="" size="2"/>
			<output>
				<port id="0" precision="FP16"/>
			</output>
		</layer>
		<layer id="95" name="2870287415227" type="Const" version="opset1">
			<data element_type="f16" offset="4682" shape="" size="2"/>
			<output>
				<port id="0" precision="FP16"/>
			</output>
		</layer>
		<layer id="96" name="2871287514159" type="Const" version="opset1">
			<data element_type="f16" offset="4684" shape="" size="2"/>
			<output>
				<port id="0" precision="FP16"/>
			</output>
		</layer>
		<layer id="97" name="2988299215332" type="Const" version="opset1">
			<data element_type="f16" offset="4686" shape="1,512,1,1" size="1024"/>
			<output>
				<port id="0" precision="FP16">
					<dim>1</dim>
					<dim>512</dim>
					<dim>1</dim>
					<dim>1</dim>
				</port>
			</output>
		</layer>
		<layer id="98" name="2989299314078" type="Const" version="opset1">
			<data element_type="f16" offset="5710" shape="1,512,1,1" size="1024"/>
			<output>
				<port id="0" precision="FP16">
					<dim>1</dim>
					<dim>512</dim>
					<dim>1</dim>
					<dim>1</dim>
				</port>
			</output>
		</layer>
		<layer id="99" name="2990299413892" type="Const" version="opset1">
			<data element_type="f16" offset="4686" shape="1,512,1,1" size="1024"/>
			<output>
				<port id="0" precision="FP16">
					<dim>1</dim>
					<dim>512</dim>
					<dim>1</dim>
					<dim>1</dim>
				</port>
			</output>
		</layer>
		<layer id="100" name="2991299515251" type="Const" version="opset1">
			<data element_type="f16" offset="5710" shape="1,512,1,1" size="1024"/>
			<output>
				<port id="0" precision="FP16">
					<dim>1</dim>
					<dim>512</dim>
					<dim>1</dim>
					<dim>1</dim>
				</port>
			</output>
		</layer>
		<layer id="101" name="1708171215107" type="Const" version="opset1">
			<data element_type="f16" offset="6734" shape="" size="2"/>
			<output>
				<port id="0" precision="FP16"/>
			</output>
		</layer>
		<layer id="102" name="1709171314369" type="Const" version="opset1">
			<data element_type="f16" offset="6736" shape="" size="2"/>
			<output>
				<port id="0" precision="FP16"/>
			</output>
		</layer>
		<layer id="103" name="1710171415023" type="Const" version="opset1">
			<data element_type="f16" offset="6734" shape="" size="2"/>
			<output>
				<port id="0" precision="FP16"/>
			</output>
		</layer>
		<layer id="104" name="1711171516043" type="Const" version="opset1">
			<data element_type="f16" offset="6736" shape="" size="2"/>
			<output>
				<port id="0" precision="FP16"/>
			</output>
		</layer>
		<layer id="105" name="2728273213805" type="Const" version="opset1">
			<data element_type="f16" offset="6738" shape="" size="2"/>
			<output>
				<port id="0" precision="FP16"/>
			</output>
		</layer>
		<layer id="106" name="2729273315266" type="Const" version="opset1">
			<data element_type="f16" offset="6740" shape="" size="2"/>
			<output>
				<port id="0" precision="FP16"/>
			</output>
		</layer>
		<layer id="107" name="2730273415542" type="Const" version="opset1">
			<data element_type="f16" offset="6738" shape="" size="2"/>
			<output>
				<port id="0" precision="FP16"/>
			</output>
		</layer>
		<layer id="108" name="2731273514255" type="Const" version="opset1">
			<data element_type="f16" offset="6740" shape="" size="2"/>
			<output>
				<port id="0" precision="FP16"/>
			</output>
		</layer>
		<layer id="109" name="2358236214630" type="Const" version="opset1">
			<data element_type="f16" offset="2572" shape="" size="2"/>
			<output>
				<port id="0" precision="FP16"/>
			</output>
		</layer>
		<layer id="110" name="2359236314660" type="Const" version="opset1">
			<data element_type="f16" offset="6742" shape="" size="2"/>
			<output>
				<port id="0" precision="FP16"/>
			</output>
		</layer>
		<layer id="111" name="2360236415329" type="Const" version="opset1">
			<data element_type="f16" offset="2572" shape="" size="2"/>
			<output>
				<port id="0" precision="FP16"/>
			</output>
		</layer>
		<layer id="112" name="2361236514696" type="Const" version="opset1">
			<data element_type="f16" offset="6742" shape="" size="2"/>
			<output>
				<port id="0" precision="FP16"/>
			</output>
		</layer>
		<layer id="113" name="2968297214963" type="Const" version="opset1">
			<data element_type="f16" offset="6744" shape="" size="2"/>
			<output>
				<port id="0" precision="FP16"/>
			</output>
		</layer>
		<layer id="114" name="2969297315695" type="Const" version="opset1">
			<data element_type="f16" offset="6746" shape="" size="2"/>
			<output>
				<port id="0" precision="FP16"/>
			</output>
		</layer>
		<layer id="115" name="2970297413724" type="Const" version="opset1">
			<data element_type="f16" offset="6744" shape="" size="2"/>
			<output>
				<port id="0" precision="FP16"/>
			</output>
		</layer>
		<layer id="116" name="2971297515665" type="Const" version="opset1">
			<data element_type="f16" offset="6746" shape="" size="2"/>
			<output>
				<port id="0" precision="FP16"/>
			</output>
		</layer>
		<layer id="117" name="2688269213886" type="Const" version="opset1">
			<data element_type="f16" offset="6748" shape="" size="2"/>
			<output>
				<port id="0" precision="FP16"/>
			</output>
		</layer>
		<layer id="118" name="2689269316025" type="Const" version="opset1">
			<data element_type="f16" offset="6750" shape="" size="2"/>
			<output>
				<port id="0" precision="FP16"/>
			</output>
		</layer>
		<layer id="119" name="2690269414900" type="Const" version="opset1">
			<data element_type="f16" offset="6748" shape="" size="2"/>
			<output>
				<port id="0" precision="FP16"/>
			</output>
		</layer>
		<layer id="120" name="2691269515872" type="Const" version="opset1">
			<data element_type="f16" offset="6750" shape="" size="2"/>
			<output>
				<port id="0" precision="FP16"/>
			</output>
		</layer>
		<layer id="121" name="2178218213919" type="Const" version="opset1">
			<data element_type="f16" offset="6752" shape="" size="2"/>
			<output>
				<port id="0" precision="FP16"/>
			</output>
		</layer>
		<layer id="122" name="2179218315869" type="Const" version="opset1">
			<data element_type="f16" offset="6754" shape="" size="2"/>
			<output>
				<port id="0" precision="FP16"/>
			</output>
		</layer>
		<layer id="123" name="2180218414135" type="Const" version="opset1">
			<data element_type="f16" offset="6752" shape="" size="2"/>
			<output>
				<port id="0" precision="FP16"/>
			</output>
		</layer>
		<layer id="124" name="2181218514057" type="Const" version="opset1">
			<data element_type="f16" offset="6754" shape="" size="2"/>
			<output>
				<port id="0" precision="FP16"/>
			</output>
		</layer>
		<layer id="125" name="1748175215404" type="Const" version="opset1">
			<data element_type="f16" offset="2572" shape="" size="2"/>
			<output>
				<port id="0" precision="FP16"/>
			</output>
		</layer>
		<layer id="126" name="1749175315284" type="Const" version="opset1">
			<data element_type="f16" offset="6756" shape="" size="2"/>
			<output>
				<port id="0" precision="FP16"/>
			</output>
		</layer>
		<layer id="127" name="1750175414738" type="Const" version="opset1">
			<data element_type="f16" offset="2572" shape="" size="2"/>
			<output>
				<port id="0" precision="FP16"/>
			</output>
		</layer>
		<layer id="128" name="1751175515221" type="Const" version="opset1">
			<data element_type="f16" offset="6756" shape="" size="2"/>
			<output>
				<port id="0" precision="FP16"/>
			</output>
		</layer>
		<layer id="129" name="1608161214345" type="Const" version="opset1">
			<data element_type="f16" offset="3640" shape="1,256,1,1" size="512"/>
			<output>
				<port id="0" precision="FP16">
					<dim>1</dim>
					<dim>256</dim>
					<dim>1</dim>
					<dim>1</dim>
				</port>
			</output>
		</layer>
		<layer id="130" name="1609161315293" type="Const" version="opset1">
			<data element_type="f16" offset="6758" shape="1,256,1,1" size="512"/>
			<output>
				<port id="0" precision="FP16">
					<dim>1</dim>
					<dim>256</dim>
					<dim>1</dim>
					<dim>1</dim>
				</port>
			</output>
		</layer>
		<layer id="131" name="1610161414819" type="Const" version="opset1">
			<data element_type="f16" offset="3640" shape="1,256,1,1" size="512"/>
			<output>
				<port id="0" precision="FP16">
					<dim>1</dim>
					<dim>256</dim>
					<dim>1</dim>
					<dim>1</dim>
				</port>
			</output>
		</layer>
		<layer id="132" name="1611161514894" type="Const" version="opset1">
			<data element_type="f16" offset="6758" shape="1,256,1,1" size="512"/>
			<output>
				<port id="0" precision="FP16">
					<dim>1</dim>
					<dim>256</dim>
					<dim>1</dim>
					<dim>1</dim>
				</port>
			</output>
		</layer>
		<layer id="133" name="1768177214108" type="Const" version="opset1">
			<data element_type="f16" offset="7270" shape="" size="2"/>
			<output>
				<port id="0" precision="FP16"/>
			</output>
		</layer>
		<layer id="134" name="1769177315842" type="Const" version="opset1">
			<data element_type="f16" offset="7272" shape="" size="2"/>
			<output>
				<port id="0" precision="FP16"/>
			</output>
		</layer>
		<layer id="135" name="1770177413814" type="Const" version="opset1">
			<data element_type="f16" offset="7270" shape="" size="2"/>
			<output>
				<port id="0" precision="FP16"/>
			</output>
		</layer>
		<layer id="136" name="1771177515317" type="Const" version="opset1">
			<data element_type="f16" offset="7272" shape="" size="2"/>
			<output>
				<port id="0" precision="FP16"/>
			</output>
		</layer>
		<layer id="137" name="3638364215518" type="Const" version="opset1">
			<data element_type="f16" offset="7274" shape="" size="2"/>
			<output>
				<port id="0" precision="FP16"/>
			</output>
		</layer>
		<layer id="138" name="3639364315545" type="Const" version="opset1">
			<data element_type="f16" offset="7276" shape="" size="2"/>
			<output>
				<port id="0" precision="FP16"/>
			</output>
		</layer>
		<layer id="139" name="3640364415455" type="Const" version="opset1">
			<data element_type="f16" offset="7274" shape="" size="2"/>
			<output>
				<port id="0" precision="FP16"/>
			</output>
		</layer>
		<layer id="140" name="3641364516115" type="Const" version="opset1">
			<data element_type="f16" offset="7276" shape="" size="2"/>
			<output>
				<port id="0" precision="FP16"/>
			</output>
		</layer>
		<layer id="141" name="3498350215437" type="Const" version="opset1">
			<data element_type="f16" offset="2572" shape="" size="2"/>
			<output>
				<port id="0" precision="FP16"/>
			</output>
		</layer>
		<layer id="142" name="3499350316172" type="Const" version="opset1">
			<data element_type="f16" offset="7278" shape="" size="2"/>
			<output>
				<port id="0" precision="FP16"/>
			</output>
		</layer>
		<layer id="143" name="3500350415779" type="Const" version="opset1">
			<data element_type="f16" offset="2572" shape="" size="2"/>
			<output>
				<port id="0" precision="FP16"/>
			</output>
		</layer>
		<layer id="144" name="3501350513733" type="Const" version="opset1">
			<data element_type="f16" offset="7278" shape="" size="2"/>
			<output>
				<port id="0" precision="FP16"/>
			</output>
		</layer>
		<layer id="145" name="2488249215086" type="Const" version="opset1">
			<data element_type="f16" offset="7280" shape="" size="2"/>
			<output>
				<port id="0" precision="FP16"/>
			</output>
		</layer>
		<layer id="146" name="2489249316034" type="Const" version="opset1">
			<data element_type="f16" offset="7282" shape="" size="2"/>
			<output>
				<port id="0" precision="FP16"/>
			</output>
		</layer>
		<layer id="147" name="2490249414426" type="Const" version="opset1">
			<data element_type="f16" offset="7280" shape="" size="2"/>
			<output>
				<port id="0" precision="FP16"/>
			</output>
		</layer>
		<layer id="148" name="2491249514522" type="Const" version="opset1">
			<data element_type="f16" offset="7282" shape="" size="2"/>
			<output>
				<port id="0" precision="FP16"/>
			</output>
		</layer>
		<layer id="149" name="3158316215836" type="Const" version="opset1">
			<data element_type="f16" offset="7284" shape="" size="2"/>
			<output>
				<port id="0" precision="FP16"/>
			</output>
		</layer>
		<layer id="150" name="3159316314834" type="Const" version="opset1">
			<data element_type="f16" offset="7286" shape="" size="2"/>
			<output>
				<port id="0" precision="FP16"/>
			</output>
		</layer>
		<layer id="151" name="3160316415110" type="Const" version="opset1">
			<data element_type="f16" offset="7284" shape="" size="2"/>
			<output>
				<port id="0" precision="FP16"/>
			</output>
		</layer>
		<layer id="152" name="3161316515269" type="Const" version="opset1">
			<data element_type="f16" offset="7286" shape="" size="2"/>
			<output>
				<port id="0" precision="FP16"/>
			</output>
		</layer>
		<layer id="153" name="3788379214618" type="Const" version="opset1">
			<data element_type="f16" offset="7288" shape="" size="2"/>
			<output>
				<port id="0" precision="FP16"/>
			</output>
		</layer>
		<layer id="154" name="3789379313901" type="Const" version="opset1">
			<data element_type="f16" offset="7290" shape="" size="2"/>
			<output>
				<port id="0" precision="FP16"/>
			</output>
		</layer>
		<layer id="155" name="3790379414318" type="Const" version="opset1">
			<data element_type="f16" offset="7288" shape="" size="2"/>
			<output>
				<port id="0" precision="FP16"/>
			</output>
		</layer>
		<layer id="156" name="3791379516142" type="Const" version="opset1">
			<data element_type="f16" offset="7290" shape="" size="2"/>
			<output>
				<port id="0" precision="FP16"/>
			</output>
		</layer>
		<layer id="157" name="3108311214945" type="Const" version="opset1">
			<data element_type="f16" offset="2572" shape="" size="2"/>
			<output>
				<port id="0" precision="FP16"/>
			</output>
		</layer>
		<layer id="158" name="3109311316010" type="Const" version="opset1">
			<data element_type="f16" offset="7292" shape="" size="2"/>
			<output>
				<port id="0" precision="FP16"/>
			</output>
		</layer>
		<layer id="159" name="3110311415803" type="Const" version="opset1">
			<data element_type="f16" offset="2572" shape="" size="2"/>
			<output>
				<port id="0" precision="FP16"/>
			</output>
		</layer>
		<layer id="160" name="3111311515008" type="Const" version="opset1">
			<data element_type="f16" offset="7292" shape="" size="2"/>
			<output>
				<port id="0" precision="FP16"/>
			</output>
		</layer>
		<layer id="161" name="2328233214441" type="Const" version="opset1">
			<data element_type="f16" offset="7294" shape="1,256,1,1" size="512"/>
			<output>
				<port id="0" precision="FP16">
					<dim>1</dim>
					<dim>256</dim>
					<dim>1</dim>
					<dim>1</dim>
				</port>
			</output>
		</layer>
		<layer id="162" name="2329233316004" type="Const" version="opset1">
			<data element_type="f16" offset="7806" shape="1,256,1,1" size="512"/>
			<output>
				<port id="0" precision="FP16">
					<dim>1</dim>
					<dim>256</dim>
					<dim>1</dim>
					<dim>1</dim>
				</port>
			</output>
		</layer>
		<layer id="163" name="2330233416328" type="Const" version="opset1">
			<data element_type="f16" offset="7294" shape="1,256,1,1" size="512"/>
			<output>
				<port id="0" precision="FP16">
					<dim>1</dim>
					<dim>256</dim>
					<dim>1</dim>
					<dim>1</dim>
				</port>
			</output>
		</layer>
		<layer id="164" name="2331233515716" type="Const" version="opset1">
			<data element_type="f16" offset="7806" shape="1,256,1,1" size="512"/>
			<output>
				<port id="0" precision="FP16">
					<dim>1</dim>
					<dim>256</dim>
					<dim>1</dim>
					<dim>1</dim>
				</port>
			</output>
		</layer>
		<layer id="165" name="3068307214390" type="Const" version="opset1">
			<data element_type="f16" offset="8318" shape="" size="2"/>
			<output>
				<port id="0" precision="FP16"/>
			</output>
		</layer>
		<layer id="166" name="3069307314771" type="Const" version="opset1">
			<data element_type="f16" offset="8320" shape="" size="2"/>
			<output>
				<port id="0" precision="FP16"/>
			</output>
		</layer>
		<layer id="167" name="3070307414285" type="Const" version="opset1">
			<data element_type="f16" offset="8318" shape="" size="2"/>
			<output>
				<port id="0" precision="FP16"/>
			</output>
		</layer>
		<layer id="168" name="3071307514540" type="Const" version="opset1">
			<data element_type="f16" offset="8320" shape="" size="2"/>
			<output>
				<port id="0" precision="FP16"/>
			</output>
		</layer>
		<layer id="169" name="2278228214750" type="Const" version="opset1">
			<data element_type="f16" offset="8322" shape="" size="2"/>
			<output>
				<port id="0" precision="FP16"/>
			</output>
		</layer>
		<layer id="170" name="2279228313850" type="Const" version="opset1">
			<data element_type="f16" offset="8324" shape="" size="2"/>
			<output>
				<port id="0" precision="FP16"/>
			</output>
		</layer>
		<layer id="171" name="2280228415053" type="Const" version="opset1">
			<data element_type="f16" offset="8322" shape="" size="2"/>
			<output>
				<port id="0" precision="FP16"/>
			</output>
		</layer>
		<layer id="172" name="2281228514831" type="Const" version="opset1">
			<data element_type="f16" offset="8324" shape="" size="2"/>
			<output>
				<port id="0" precision="FP16"/>
			</output>
		</layer>
		<layer id="173" name="1978198214270" type="Const" version="opset1">
			<data element_type="f16" offset="2572" shape="" size="2"/>
			<output>
				<port id="0" precision="FP16"/>
			</output>
		</layer>
		<layer id="174" name="1979198315752" type="Const" version="opset1">
			<data element_type="f16" offset="8326" shape="" size="2"/>
			<output>
				<port id="0" precision="FP16"/>
			</output>
		</layer>
		<layer id="175" name="1980198414717" type="Const" version="opset1">
			<data element_type="f16" offset="2572" shape="" size="2"/>
			<output>
				<port id="0" precision="FP16"/>
			</output>
		</layer>
		<layer id="176" name="1981198515278" type="Const" version="opset1">
			<data element_type="f16" offset="8326" shape="" size="2"/>
			<output>
				<port id="0" precision="FP16"/>
			</output>
		</layer>
		<layer id="177" name="2908291215908" type="Const" version="opset1">
			<data element_type="f16" offset="8328" shape="" size="2"/>
			<output>
				<port id="0" precision="FP16"/>
			</output>
		</layer>
		<layer id="178" name="2909291315971" type="Const" version="opset1">
			<data element_type="f16" offset="8330" shape="" size="2"/>
			<output>
				<port id="0" precision="FP16"/>
			</output>
		</layer>
		<layer id="179" name="2910291415587" type="Const" version="opset1">
			<data element_type="f16" offset="8328" shape="" size="2"/>
			<output>
				<port id="0" precision="FP16"/>
			</output>
		</layer>
		<layer id="180" name="2911291514576" type="Const" version="opset1">
			<data element_type="f16" offset="8330" shape="" size="2"/>
			<output>
				<port id="0" precision="FP16"/>
			</output>
		</layer>
		<layer id="181" name="2118212214261" type="Const" version="opset1">
			<data element_type="f16" offset="8332" shape="" size="2"/>
			<output>
				<port id="0" precision="FP16"/>
			</output>
		</layer>
		<layer id="182" name="2119212316274" type="Const" version="opset1">
			<data element_type="f16" offset="8334" shape="" size="2"/>
			<output>
				<port id="0" precision="FP16"/>
			</output>
		</layer>
		<layer id="183" name="2120212414465" type="Const" version="opset1">
			<data element_type="f16" offset="8332" shape="" size="2"/>
			<output>
				<port id="0" precision="FP16"/>
			</output>
		</layer>
		<layer id="184" name="2121212514564" type="Const" version="opset1">
			<data element_type="f16" offset="8334" shape="" size="2"/>
			<output>
				<port id="0" precision="FP16"/>
			</output>
		</layer>
		<layer id="185" name="2708271214423" type="Const" version="opset1">
			<data element_type="f16" offset="8336" shape="" size="2"/>
			<output>
				<port id="0" precision="FP16"/>
			</output>
		</layer>
		<layer id="186" name="2709271315068" type="Const" version="opset1">
			<data element_type="f16" offset="8338" shape="" size="2"/>
			<output>
				<port id="0" precision="FP16"/>
			</output>
		</layer>
		<layer id="187" name="2710271414168" type="Const" version="opset1">
			<data element_type="f16" offset="8336" shape="" size="2"/>
			<output>
				<port id="0" precision="FP16"/>
			</output>
		</layer>
		<layer id="188" name="2711271515635" type="Const" version="opset1">
			<data element_type="f16" offset="8338" shape="" size="2"/>
			<output>
				<port id="0" precision="FP16"/>
			</output>
		</layer>
		<layer id="189" name="2158216214084" type="Const" version="opset1">
			<data element_type="f16" offset="2572" shape="" size="2"/>
			<output>
				<port id="0" precision="FP16"/>
			</output>
		</layer>
		<layer id="190" name="2159216314357" type="Const" version="opset1">
			<data element_type="f16" offset="8340" shape="" size="2"/>
			<output>
				<port id="0" precision="FP16"/>
			</output>
		</layer>
		<layer id="191" name="2160216413748" type="Const" version="opset1">
			<data element_type="f16" offset="2572" shape="" size="2"/>
			<output>
				<port id="0" precision="FP16"/>
			</output>
		</layer>
		<layer id="192" name="2161216514459" type="Const" version="opset1">
			<data element_type="f16" offset="8340" shape="" size="2"/>
			<output>
				<port id="0" precision="FP16"/>
			</output>
		</layer>
		<layer id="193" name="3338334215287" type="Const" version="opset1">
			<data element_type="f16" offset="8342" shape="1,256,1,1" size="512"/>
			<output>
				<port id="0" precision="FP16">
					<dim>1</dim>
					<dim>256</dim>
					<dim>1</dim>
					<dim>1</dim>
				</port>
			</output>
		</layer>
		<layer id="194" name="3339334314282" type="Const" version="opset1">
			<data element_type="f16" offset="8854" shape="1,256,1,1" size="512"/>
			<output>
				<port id="0" precision="FP16">
					<dim>1</dim>
					<dim>256</dim>
					<dim>1</dim>
					<dim>1</dim>
				</port>
			</output>
		</layer>
		<layer id="195" name="3340334414333" type="Const" version="opset1">
			<data element_type="f16" offset="8342" shape="1,256,1,1" size="512"/>
			<output>
				<port id="0" precision="FP16">
					<dim>1</dim>
					<dim>256</dim>
					<dim>1</dim>
					<dim>1</dim>
				</port>
			</output>
		</layer>
		<layer id="196" name="3341334513775" type="Const" version="opset1">
			<data element_type="f16" offset="8854" shape="1,256,1,1" size="512"/>
			<output>
				<port id="0" precision="FP16">
					<dim>1</dim>
					<dim>256</dim>
					<dim>1</dim>
					<dim>1</dim>
				</port>
			</output>
		</layer>
		<layer id="197" name="3218322216307" type="Const" version="opset1">
			<data element_type="f16" offset="9366" shape="" size="2"/>
			<output>
				<port id="0" precision="FP16"/>
			</output>
		</layer>
		<layer id="198" name="3219322314759" type="Const" version="opset1">
			<data element_type="f16" offset="9368" shape="" size="2"/>
			<output>
				<port id="0" precision="FP16"/>
			</output>
		</layer>
		<layer id="199" name="3220322415065" type="Const" version="opset1">
			<data element_type="f16" offset="9366" shape="" size="2"/>
			<output>
				<port id="0" precision="FP16"/>
			</output>
		</layer>
		<layer id="200" name="3221322513820" type="Const" version="opset1">
			<data element_type="f16" offset="9368" shape="" size="2"/>
			<output>
				<port id="0" precision="FP16"/>
			</output>
		</layer>
		<layer id="201" name="3018302214429" type="Const" version="opset1">
			<data element_type="f16" offset="9370" shape="" size="2"/>
			<output>
				<port id="0" precision="FP16"/>
			</output>
		</layer>
		<layer id="202" name="3019302314795" type="Const" version="opset1">
			<data element_type="f16" offset="9372" shape="" size="2"/>
			<output>
				<port id="0" precision="FP16"/>
			</output>
		</layer>
		<layer id="203" name="3020302415761" type="Const" version="opset1">
			<data element_type="f16" offset="9370" shape="" size="2"/>
			<output>
				<port id="0" precision="FP16"/>
			</output>
		</layer>
		<layer id="204" name="3021302515755" type="Const" version="opset1">
			<data element_type="f16" offset="9372" shape="" size="2"/>
			<output>
				<port id="0" precision="FP16"/>
			</output>
		</layer>
		<layer id="205" name="2378238216325" type="Const" version="opset1">
			<data element_type="f16" offset="2572" shape="" size="2"/>
			<output>
				<port id="0" precision="FP16"/>
			</output>
		</layer>
		<layer id="206" name="2379238315797" type="Const" version="opset1">
			<data element_type="f16" offset="9374" shape="" size="2"/>
			<output>
				<port id="0" precision="FP16"/>
			</output>
		</layer>
		<layer id="207" name="2380238416298" type="Const" version="opset1">
			<data element_type="f16" offset="2572" shape="" size="2"/>
			<output>
				<port id="0" precision="FP16"/>
			</output>
		</layer>
		<layer id="208" name="2381238514093" type="Const" version="opset1">
			<data element_type="f16" offset="9374" shape="" size="2"/>
			<output>
				<port id="0" precision="FP16"/>
			</output>
		</layer>
		<layer id="209" name="2618262214729" type="Const" version="opset1">
			<data element_type="f16" offset="9376" shape="" size="2"/>
			<output>
				<port id="0" precision="FP16"/>
			</output>
		</layer>
		<layer id="210" name="2619262315608" type="Const" version="opset1">
			<data element_type="f16" offset="9378" shape="" size="2"/>
			<output>
				<port id="0" precision="FP16"/>
			</output>
		</layer>
		<layer id="211" name="2620262414063" type="Const" version="opset1">
			<data element_type="f16" offset="9376" shape="" size="2"/>
			<output>
				<port id="0" precision="FP16"/>
			</output>
		</layer>
		<layer id="212" name="2621262514753" type="Const" version="opset1">
			<data element_type="f16" offset="9378" shape="" size="2"/>
			<output>
				<port id="0" precision="FP16"/>
			</output>
		</layer>
		<layer id="213" name="3708371216049" type="Const" version="opset1">
			<data element_type="f16" offset="9380" shape="" size="2"/>
			<output>
				<port id="0" precision="FP16"/>
			</output>
		</layer>
		<layer id="214" name="3709371313823" type="Const" version="opset1">
			<data element_type="f16" offset="9382" shape="" size="2"/>
			<output>
				<port id="0" precision="FP16"/>
			</output>
		</layer>
		<layer id="215" name="3710371415113" type="Const" version="opset1">
			<data element_type="f16" offset="9380" shape="" size="2"/>
			<output>
				<port id="0" precision="FP16"/>
			</output>
		</layer>
		<layer id="216" name="3711371514414" type="Const" version="opset1">
			<data element_type="f16" offset="9382" shape="" size="2"/>
			<output>
				<port id="0" precision="FP16"/>
			</output>
		</layer>
		<layer id="217" name="2568257215731" type="Const" version="opset1">
			<data element_type="f16" offset="9384" shape="" size="2"/>
			<output>
				<port id="0" precision="FP16"/>
			</output>
		</layer>
		<layer id="218" name="2569257314249" type="Const" version="opset1">
			<data element_type="f16" offset="9386" shape="" size="2"/>
			<output>
				<port id="0" precision="FP16"/>
			</output>
		</layer>
		<layer id="219" name="2570257415773" type="Const" version="opset1">
			<data element_type="f16" offset="9384" shape="" size="2"/>
			<output>
				<port id="0" precision="FP16"/>
			</output>
		</layer>
		<layer id="220" name="2571257515140" type="Const" version="opset1">
			<data element_type="f16" offset="9386" shape="" size="2"/>
			<output>
				<port id="0" precision="FP16"/>
			</output>
		</layer>
		<layer id="221" name="1928193215119" type="Const" version="opset1">
			<data element_type="f16" offset="2572" shape="" size="2"/>
			<output>
				<port id="0" precision="FP16"/>
			</output>
		</layer>
		<layer id="222" name="1929193313910" type="Const" version="opset1">
			<data element_type="f16" offset="2570" shape="" size="2"/>
			<output>
				<port id="0" precision="FP16"/>
			</output>
		</layer>
		<layer id="223" name="1930193414375" type="Const" version="opset1">
			<data element_type="f16" offset="2572" shape="" size="2"/>
			<output>
				<port id="0" precision="FP16"/>
			</output>
		</layer>
		<layer id="224" name="1931193514849" type="Const" version="opset1">
			<data element_type="f16" offset="2570" shape="" size="2"/>
			<output>
				<port id="0" precision="FP16"/>
			</output>
		</layer>
		<layer id="225" name="2448245214840" type="Const" version="opset1">
			<data element_type="f16" offset="3640" shape="1,256,1,1" size="512"/>
			<output>
				<port id="0" precision="FP16">
					<dim>1</dim>
					<dim>256</dim>
					<dim>1</dim>
					<dim>1</dim>
				</port>
			</output>
		</layer>
		<layer id="226" name="2449245316178" type="Const" version="opset1">
			<data element_type="f16" offset="9388" shape="1,256,1,1" size="512"/>
			<output>
				<port id="0" precision="FP16">
					<dim>1</dim>
					<dim>256</dim>
					<dim>1</dim>
					<dim>1</dim>
				</port>
			</output>
		</layer>
		<layer id="227" name="2450245414000" type="Const" version="opset1">
			<data element_type="f16" offset="3640" shape="1,256,1,1" size="512"/>
			<output>
				<port id="0" precision="FP16">
					<dim>1</dim>
					<dim>256</dim>
					<dim>1</dim>
					<dim>1</dim>
				</port>
			</output>
		</layer>
		<layer id="228" name="2451245514648" type="Const" version="opset1">
			<data element_type="f16" offset="9388" shape="1,256,1,1" size="512"/>
			<output>
				<port id="0" precision="FP16">
					<dim>1</dim>
					<dim>256</dim>
					<dim>1</dim>
					<dim>1</dim>
				</port>
			</output>
		</layer>
		<layer id="229" name="1688169215524" type="Const" version="opset1">
			<data element_type="f16" offset="9900" shape="" size="2"/>
			<output>
				<port id="0" precision="FP16"/>
			</output>
		</layer>
		<layer id="230" name="1689169315011" type="Const" version="opset1">
			<data element_type="f16" offset="9902" shape="" size="2"/>
			<output>
				<port id="0" precision="FP16"/>
			</output>
		</layer>
		<layer id="231" name="1690169414642" type="Const" version="opset1">
			<data element_type="f16" offset="9900" shape="" size="2"/>
			<output>
				<port id="0" precision="FP16"/>
			</output>
		</layer>
		<layer id="232" name="1691169513745" type="Const" version="opset1">
			<data element_type="f16" offset="9902" shape="" size="2"/>
			<output>
				<port id="0" precision="FP16"/>
			</output>
		</layer>
		<layer id="233" name="3248325214606" type="Const" version="opset1">
			<data element_type="f16" offset="9904" shape="" size="2"/>
			<output>
				<port id="0" precision="FP16"/>
			</output>
		</layer>
		<layer id="234" name="3249325315926" type="Const" version="opset1">
			<data element_type="f16" offset="9906" shape="" size="2"/>
			<output>
				<port id="0" precision="FP16"/>
			</output>
		</layer>
		<layer id="235" name="3250325415782" type="Const" version="opset1">
			<data element_type="f16" offset="9904" shape="" size="2"/>
			<output>
				<port id="0" precision="FP16"/>
			</output>
		</layer>
		<layer id="236" name="3251325515398" type="Const" version="opset1">
			<data element_type="f16" offset="9906" shape="" size="2"/>
			<output>
				<port id="0" precision="FP16"/>
			</output>
		</layer>
		<layer id="237" name="2478248215305" type="Const" version="opset1">
			<data element_type="f16" offset="2572" shape="" size="2"/>
			<output>
				<port id="0" precision="FP16"/>
			</output>
		</layer>
		<layer id="238" name="2479248315458" type="Const" version="opset1">
			<data element_type="f16" offset="9908" shape="" size="2"/>
			<output>
				<port id="0" precision="FP16"/>
			</output>
		</layer>
		<layer id="239" name="2480248415791" type="Const" version="opset1">
			<data element_type="f16" offset="2572" shape="" size="2"/>
			<output>
				<port id="0" precision="FP16"/>
			</output>
		</layer>
		<layer id="240" name="2481248514708" type="Const" version="opset1">
			<data element_type="f16" offset="9908" shape="" size="2"/>
			<output>
				<port id="0" precision="FP16"/>
			</output>
		</layer>
		<layer id="241" name="3028303215578" type="Const" version="opset1">
			<data element_type="f16" offset="9910" shape="" size="2"/>
			<output>
				<port id="0" precision="FP16"/>
			</output>
		</layer>
		<layer id="242" name="3029303316046" type="Const" version="opset1">
			<data element_type="f16" offset="9912" shape="" size="2"/>
			<output>
				<port id="0" precision="FP16"/>
			</output>
		</layer>
		<layer id="243" name="3030303413955" type="Const" version="opset1">
			<data element_type="f16" offset="9910" shape="" size="2"/>
			<output>
				<port id="0" precision="FP16"/>
			</output>
		</layer>
		<layer id="244" name="3031303514570" type="Const" version="opset1">
			<data element_type="f16" offset="9912" shape="" size="2"/>
			<output>
				<port id="0" precision="FP16"/>
			</output>
		</layer>
		<layer id="245" name="2188219214222" type="Const" version="opset1">
			<data element_type="f16" offset="9914" shape="" size="2"/>
			<output>
				<port id="0" precision="FP16"/>
			</output>
		</layer>
		<layer id="246" name="2189219314060" type="Const" version="opset1">
			<data element_type="f16" offset="9916" shape="" size="2"/>
			<output>
				<port id="0" precision="FP16"/>
			</output>
		</layer>
		<layer id="247" name="2190219416313" type="Const" version="opset1">
			<data element_type="f16" offset="9914" shape="" size="2"/>
			<output>
				<port id="0" precision="FP16"/>
			</output>
		</layer>
		<layer id="248" name="2191219515932" type="Const" version="opset1">
			<data element_type="f16" offset="9916" shape="" size="2"/>
			<output>
				<port id="0" precision="FP16"/>
			</output>
		</layer>
		<layer id="249" name="3128313214720" type="Const" version="opset1">
			<data element_type="f16" offset="9918" shape="" size="2"/>
			<output>
				<port id="0" precision="FP16"/>
			</output>
		</layer>
		<layer id="250" name="3129313316253" type="Const" version="opset1">
			<data element_type="f16" offset="9920" shape="" size="2"/>
			<output>
				<port id="0" precision="FP16"/>
			</output>
		</layer>
		<layer id="251" name="3130313416280" type="Const" version="opset1">
			<data element_type="f16" offset="9918" shape="" size="2"/>
			<output>
				<port id="0" precision="FP16"/>
			</output>
		</layer>
		<layer id="252" name="3131313515977" type="Const" version="opset1">
			<data element_type="f16" offset="9920" shape="" size="2"/>
			<output>
				<port id="0" precision="FP16"/>
			</output>
		</layer>
		<layer id="253" name="2928293214699" type="Const" version="opset1">
			<data element_type="f16" offset="2572" shape="" size="2"/>
			<output>
				<port id="0" precision="FP16"/>
			</output>
		</layer>
		<layer id="254" name="2929293313715" type="Const" version="opset1">
			<data element_type="f16" offset="9922" shape="" size="2"/>
			<output>
				<port id="0" precision="FP16"/>
			</output>
		</layer>
		<layer id="255" name="2930293413721" type="Const" version="opset1">
			<data element_type="f16" offset="2572" shape="" size="2"/>
			<output>
				<port id="0" precision="FP16"/>
			</output>
		</layer>
		<layer id="256" name="2931293515155" type="Const" version="opset1">
			<data element_type="f16" offset="9922" shape="" size="2"/>
			<output>
				<port id="0" precision="FP16"/>
			</output>
		</layer>
		<layer id="257" name="3298330215551" type="Const" version="opset1">
			<data element_type="f16" offset="9924" shape="1,256,1,1" size="512"/>
			<output>
				<port id="0" precision="FP16">
					<dim>1</dim>
					<dim>256</dim>
					<dim>1</dim>
					<dim>1</dim>
				</port>
			</output>
		</layer>
		<layer id="258" name="3299330313877" type="Const" version="opset1">
			<data element_type="f16" offset="10436" shape="1,256,1,1" size="512"/>
			<output>
				<port id="0" precision="FP16">
					<dim>1</dim>
					<dim>256</dim>
					<dim>1</dim>
					<dim>1</dim>
				</port>
			</output>
		</layer>
		<layer id="259" name="3300330414981" type="Const" version="opset1">
			<data element_type="f16" offset="9924" shape="1,256,1,1" size="512"/>
			<output>
				<port id="0" precision="FP16">
					<dim>1</dim>
					<dim>256</dim>
					<dim>1</dim>
					<dim>1</dim>
				</port>
			</output>
		</layer>
		<layer id="260" name="3301330513994" type="Const" version="opset1">
			<data element_type="f16" offset="10436" shape="1,256,1,1" size="512"/>
			<output>
				<port id="0" precision="FP16">
					<dim>1</dim>
					<dim>256</dim>
					<dim>1</dim>
					<dim>1</dim>
				</port>
			</output>
		</layer>
		<layer id="261" name="2758276215116" type="Const" version="opset1">
			<data element_type="f16" offset="10948" shape="" size="2"/>
			<output>
				<port id="0" precision="FP16"/>
			</output>
		</layer>
		<layer id="262" name="2759276314978" type="Const" version="opset1">
			<data element_type="f16" offset="10950" shape="" size="2"/>
			<output>
				<port id="0" precision="FP16"/>
			</output>
		</layer>
		<layer id="263" name="2760276415380" type="Const" version="opset1">
			<data element_type="f16" offset="10948" shape="" size="2"/>
			<output>
				<port id="0" precision="FP16"/>
			</output>
		</layer>
		<layer id="264" name="2761276514420" type="Const" version="opset1">
			<data element_type="f16" offset="10950" shape="" size="2"/>
			<output>
				<port id="0" precision="FP16"/>
			</output>
		</layer>
		<layer id="265" name="1998200214324" type="Const" version="opset1">
			<data element_type="f16" offset="10952" shape="" size="2"/>
			<output>
				<port id="0" precision="FP16"/>
			</output>
		</layer>
		<layer id="266" name="1999200314351" type="Const" version="opset1">
			<data element_type="f16" offset="10954" shape="" size="2"/>
			<output>
				<port id="0" precision="FP16"/>
			</output>
		</layer>
		<layer id="267" name="2000200414384" type="Const" version="opset1">
			<data element_type="f16" offset="10952" shape="" size="2"/>
			<output>
				<port id="0" precision="FP16"/>
			</output>
		</layer>
		<layer id="268" name="2001200515788" type="Const" version="opset1">
			<data element_type="f16" offset="10954" shape="" size="2"/>
			<output>
				<port id="0" precision="FP16"/>
			</output>
		</layer>
		<layer id="269" name="3408341215242" type="Const" version="opset1">
			<data element_type="f16" offset="2572" shape="" size="2"/>
			<output>
				<port id="0" precision="FP16"/>
			</output>
		</layer>
		<layer id="270" name="3409341315947" type="Const" version="opset1">
			<data element_type="f16" offset="10956" shape="" size="2"/>
			<output>
				<port id="0" precision="FP16"/>
			</output>
		</layer>
		<layer id="271" name="3410341414855" type="Const" version="opset1">
			<data element_type="f16" offset="2572" shape="" size="2"/>
			<output>
				<port id="0" precision="FP16"/>
			</output>
		</layer>
		<layer id="272" name="3411341515725" type="Const" version="opset1">
			<data element_type="f16" offset="10956" shape="" size="2"/>
			<output>
				<port id="0" precision="FP16"/>
			</output>
		</layer>
		<layer id="273" name="2428243215275" type="Const" version="opset1">
			<data element_type="f16" offset="10958" shape="" size="2"/>
			<output>
				<port id="0" precision="FP16"/>
			</output>
		</layer>
		<layer id="274" name="2429243314768" type="Const" version="opset1">
			<data element_type="f16" offset="10960" shape="" size="2"/>
			<output>
				<port id="0" precision="FP16"/>
			</output>
		</layer>
		<layer id="275" name="2430243415734" type="Const" version="opset1">
			<data element_type="f16" offset="10958" shape="" size="2"/>
			<output>
				<port id="0" precision="FP16"/>
			</output>
		</layer>
		<layer id="276" name="2431243514669" type="Const" version="opset1">
			<data element_type="f16" offset="10960" shape="" size="2"/>
			<output>
				<port id="0" precision="FP16"/>
			</output>
		</layer>
		<layer id="277" name="3138314216271" type="Const" version="opset1">
			<data element_type="f16" offset="10962" shape="" size="2"/>
			<output>
				<port id="0" precision="FP16"/>
			</output>
		</layer>
		<layer id="278" name="3139314316256" type="Const" version="opset1">
			<data element_type="f16" offset="10964" shape="" size="2"/>
			<output>
				<port id="0" precision="FP16"/>
			</output>
		</layer>
		<layer id="279" name="3140314414624" type="Const" version="opset1">
			<data element_type="f16" offset="10962" shape="" size="2"/>
			<output>
				<port id="0" precision="FP16"/>
			</output>
		</layer>
		<layer id="280" name="3141314514675" type="Const" version="opset1">
			<data element_type="f16" offset="10964" shape="" size="2"/>
			<output>
				<port id="0" precision="FP16"/>
			</output>
		</layer>
		<layer id="281" name="2108211215359" type="Const" version="opset1">
			<data element_type="f16" offset="10966" shape="" size="2"/>
			<output>
				<port id="0" precision="FP16"/>
			</output>
		</layer>
		<layer id="282" name="2109211314684" type="Const" version="opset1">
			<data element_type="f16" offset="10968" shape="" size="2"/>
			<output>
				<port id="0" precision="FP16"/>
			</output>
		</layer>
		<layer id="283" name="2110211416310" type="Const" version="opset1">
			<data element_type="f16" offset="10966" shape="" size="2"/>
			<output>
				<port id="0" precision="FP16"/>
			</output>
		</layer>
		<layer id="284" name="2111211515029" type="Const" version="opset1">
			<data element_type="f16" offset="10968" shape="" size="2"/>
			<output>
				<port id="0" precision="FP16"/>
			</output>
		</layer>
		<layer id="285" name="2388239214267" type="Const" version="opset1">
			<data element_type="f16" offset="2572" shape="" size="2"/>
			<output>
				<port id="0" precision="FP16"/>
			</output>
		</layer>
		<layer id="286" name="2389239314915" type="Const" version="opset1">
			<data element_type="f16" offset="10970" shape="" size="2"/>
			<output>
				<port id="0" precision="FP16"/>
			</output>
		</layer>
		<layer id="287" name="2390239414912" type="Const" version="opset1">
			<data element_type="f16" offset="2572" shape="" size="2"/>
			<output>
				<port id="0" precision="FP16"/>
			</output>
		</layer>
		<layer id="288" name="2391239516316" type="Const" version="opset1">
			<data element_type="f16" offset="10970" shape="" size="2"/>
			<output>
				<port id="0" precision="FP16"/>
			</output>
		</layer>
		<layer id="289" name="3428343214105" type="Const" version="opset1">
			<data element_type="f16" offset="10972" shape="1,256,1,1" size="512"/>
			<output>
				<port id="0" precision="FP16">
					<dim>1</dim>
					<dim>256</dim>
					<dim>1</dim>
					<dim>1</dim>
				</port>
			</output>
		</layer>
		<layer id="290" name="3429343313976" type="Const" version="opset1">
			<data element_type="f16" offset="11484" shape="1,256,1,1" size="512"/>
			<output>
				<port id="0" precision="FP16">
					<dim>1</dim>
					<dim>256</dim>
					<dim>1</dim>
					<dim>1</dim>
				</port>
			</output>
		</layer>
		<layer id="291" name="3430343415218" type="Const" version="opset1">
			<data element_type="f16" offset="10972" shape="1,256,1,1" size="512"/>
			<output>
				<port id="0" precision="FP16">
					<dim>1</dim>
					<dim>256</dim>
					<dim>1</dim>
					<dim>1</dim>
				</port>
			</output>
		</layer>
		<layer id="292" name="3431343515566" type="Const" version="opset1">
			<data element_type="f16" offset="11484" shape="1,256,1,1" size="512"/>
			<output>
				<port id="0" precision="FP16">
					<dim>1</dim>
					<dim>256</dim>
					<dim>1</dim>
					<dim>1</dim>
				</port>
			</output>
		</layer>
		<layer id="293" name="2598260214651" type="Const" version="opset1">
			<data element_type="f16" offset="11996" shape="" size="2"/>
			<output>
				<port id="0" precision="FP16"/>
			</output>
		</layer>
		<layer id="294" name="2599260314639" type="Const" version="opset1">
			<data element_type="f16" offset="11998" shape="" size="2"/>
			<output>
				<port id="0" precision="FP16"/>
			</output>
		</layer>
		<layer id="295" name="2600260415668" type="Const" version="opset1">
			<data element_type="f16" offset="11996" shape="" size="2"/>
			<output>
				<port id="0" precision="FP16"/>
			</output>
		</layer>
		<layer id="296" name="2601260514372" type="Const" version="opset1">
			<data element_type="f16" offset="11998" shape="" size="2"/>
			<output>
				<port id="0" precision="FP16"/>
			</output>
		</layer>
		<layer id="297" name="2418242215035" type="Const" version="opset1">
			<data element_type="f16" offset="2572" shape="" size="2"/>
			<output>
				<port id="0" precision="FP16"/>
			</output>
		</layer>
		<layer id="298" name="2419242315950" type="Const" version="opset1">
			<data element_type="f16" offset="12000" shape="" size="2"/>
			<output>
				<port id="0" precision="FP16"/>
			</output>
		</layer>
		<layer id="299" name="2420242414150" type="Const" version="opset1">
			<data element_type="f16" offset="2572" shape="" size="2"/>
			<output>
				<port id="0" precision="FP16"/>
			</output>
		</layer>
		<layer id="300" name="2421242515428" type="Const" version="opset1">
			<data element_type="f16" offset="12000" shape="" size="2"/>
			<output>
				<port id="0" precision="FP16"/>
			</output>
		</layer>
		<layer id="301" name="1728173213931" type="Const" version="opset1">
			<data element_type="f16" offset="12002" shape="" size="2"/>
			<output>
				<port id="0" precision="FP16"/>
			</output>
		</layer>
		<layer id="302" name="1729173315095" type="Const" version="opset1">
			<data element_type="f16" offset="12004" shape="" size="2"/>
			<output>
				<port id="0" precision="FP16"/>
			</output>
		</layer>
		<layer id="303" name="1730173415395" type="Const" version="opset1">
			<data element_type="f16" offset="12002" shape="" size="2"/>
			<output>
				<port id="0" precision="FP16"/>
			</output>
		</layer>
		<layer id="304" name="1731173515722" type="Const" version="opset1">
			<data element_type="f16" offset="12004" shape="" size="2"/>
			<output>
				<port id="0" precision="FP16"/>
			</output>
		</layer>
		<layer id="305" name="2778278215017" type="Const" version="opset1">
			<data element_type="f16" offset="12006" shape="" size="2"/>
			<output>
				<port id="0" precision="FP16"/>
			</output>
		</layer>
		<layer id="306" name="2779278315173" type="Const" version="opset1">
			<data element_type="f16" offset="12008" shape="" size="2"/>
			<output>
				<port id="0" precision="FP16"/>
			</output>
		</layer>
		<layer id="307" name="2780278414306" type="Const" version="opset1">
			<data element_type="f16" offset="12006" shape="" size="2"/>
			<output>
				<port id="0" precision="FP16"/>
			</output>
		</layer>
		<layer id="308" name="2781278516079" type="Const" version="opset1">
			<data element_type="f16" offset="12008" shape="" size="2"/>
			<output>
				<port id="0" precision="FP16"/>
			</output>
		</layer>
		<layer id="309" name="2818282214069" type="Const" version="opset1">
			<data element_type="f16" offset="12010" shape="" size="2"/>
			<output>
				<port id="0" precision="FP16"/>
			</output>
		</layer>
		<layer id="310" name="2819282315737" type="Const" version="opset1">
			<data element_type="f16" offset="12012" shape="" size="2"/>
			<output>
				<port id="0" precision="FP16"/>
			</output>
		</layer>
		<layer id="311" name="2820282414117" type="Const" version="opset1">
			<data element_type="f16" offset="12010" shape="" size="2"/>
			<output>
				<port id="0" precision="FP16"/>
			</output>
		</layer>
		<layer id="312" name="2821282514993" type="Const" version="opset1">
			<data element_type="f16" offset="12012" shape="" size="2"/>
			<output>
				<port id="0" precision="FP16"/>
			</output>
		</layer>
		<layer id="313" name="2638264214498" type="Const" version="opset1">
			<data element_type="f16" offset="12014" shape="" size="2"/>
			<output>
				<port id="0" precision="FP16"/>
			</output>
		</layer>
		<layer id="314" name="2639264315713" type="Const" version="opset1">
			<data element_type="f16" offset="12016" shape="" size="2"/>
			<output>
				<port id="0" precision="FP16"/>
			</output>
		</layer>
		<layer id="315" name="2640264415899" type="Const" version="opset1">
			<data element_type="f16" offset="12014" shape="" size="2"/>
			<output>
				<port id="0" precision="FP16"/>
			</output>
		</layer>
		<layer id="316" name="2641264514954" type="Const" version="opset1">
			<data element_type="f16" offset="12016" shape="" size="2"/>
			<output>
				<port id="0" precision="FP16"/>
			</output>
		</layer>
		<layer id="317" name="3548355214123" type="Const" version="opset1">
			<data element_type="f16" offset="12018" shape="1,256,1,1" size="512"/>
			<output>
				<port id="0" precision="FP16">
					<dim>1</dim>
					<dim>256</dim>
					<dim>1</dim>
					<dim>1</dim>
				</port>
			</output>
		</layer>
		<layer id="318" name="3549355313940" type="Const" version="opset1">
			<data element_type="f16" offset="12530" shape="1,256,1,1" size="512"/>
			<output>
				<port id="0" precision="FP16">
					<dim>1</dim>
					<dim>256</dim>
					<dim>1</dim>
					<dim>1</dim>
				</port>
			</output>
		</layer>
		<layer id="319" name="3550355414072" type="Const" version="opset1">
			<data element_type="f16" offset="12018" shape="1,256,1,1" size="512"/>
			<output>
				<port id="0" precision="FP16">
					<dim>1</dim>
					<dim>256</dim>
					<dim>1</dim>
					<dim>1</dim>
				</port>
			</output>
		</layer>
		<layer id="320" name="3551355515548" type="Const" version="opset1">
			<data element_type="f16" offset="12530" shape="1,256,1,1" size="512"/>
			<output>
				<port id="0" precision="FP16">
					<dim>1</dim>
					<dim>256</dim>
					<dim>1</dim>
					<dim>1</dim>
				</port>
			</output>
		</layer>
		<layer id="321" name="2798280215254" type="Const" version="opset1">
			<data element_type="f16" offset="13042" shape="" size="2"/>
			<output>
				<port id="0" precision="FP16"/>
			</output>
		</layer>
		<layer id="322" name="2799280313784" type="Const" version="opset1">
			<data element_type="f16" offset="13044" shape="" size="2"/>
			<output>
				<port id="0" precision="FP16"/>
			</output>
		</layer>
		<layer id="323" name="2800280414741" type="Const" version="opset1">
			<data element_type="f16" offset="13042" shape="" size="2"/>
			<output>
				<port id="0" precision="FP16"/>
			</output>
		</layer>
		<layer id="324" name="2801280514096" type="Const" version="opset1">
			<data element_type="f16" offset="13044" shape="" size="2"/>
			<output>
				<port id="0" precision="FP16"/>
			</output>
		</layer>
		<layer id="325" name="1858186214966" type="Const" version="opset1">
			<data element_type="f16" offset="13046" shape="" size="2"/>
			<output>
				<port id="0" precision="FP16"/>
			</output>
		</layer>
		<layer id="326" name="1859186316235" type="Const" version="opset1">
			<data element_type="f16" offset="13048" shape="" size="2"/>
			<output>
				<port id="0" precision="FP16"/>
			</output>
		</layer>
		<layer id="327" name="1860186414021" type="Const" version="opset1">
			<data element_type="f16" offset="13046" shape="" size="2"/>
			<output>
				<port id="0" precision="FP16"/>
			</output>
		</layer>
		<layer id="328" name="1861186514657" type="Const" version="opset1">
			<data element_type="f16" offset="13048" shape="" size="2"/>
			<output>
				<port id="0" precision="FP16"/>
			</output>
		</layer>
		<layer id="329" name="1598160213967" type="Const" version="opset1">
			<data element_type="f16" offset="2572" shape="" size="2"/>
			<output>
				<port id="0" precision="FP16"/>
			</output>
		</layer>
		<layer id="330" name="1599160315356" type="Const" version="opset1">
			<data element_type="f16" offset="13050" shape="" size="2"/>
			<output>
				<port id="0" precision="FP16"/>
			</output>
		</layer>
		<layer id="331" name="1600160415590" type="Const" version="opset1">
			<data element_type="f16" offset="2572" shape="" size="2"/>
			<output>
				<port id="0" precision="FP16"/>
			</output>
		</layer>
		<layer id="332" name="1601160515347" type="Const" version="opset1">
			<data element_type="f16" offset="13050" shape="" size="2"/>
			<output>
				<port id="0" precision="FP16"/>
			</output>
		</layer>
		<layer id="333" name="1828183214006" type="Const" version="opset1">
			<data element_type="f16" offset="13052" shape="" size="2"/>
			<output>
				<port id="0" precision="FP16"/>
			</output>
		</layer>
		<layer id="334" name="1829183315059" type="Const" version="opset1">
			<data element_type="f16" offset="13054" shape="" size="2"/>
			<output>
				<port id="0" precision="FP16"/>
			</output>
		</layer>
		<layer id="335" name="1830183415767" type="Const" version="opset1">
			<data element_type="f16" offset="13052" shape="" size="2"/>
			<output>
				<port id="0" precision="FP16"/>
			</output>
		</layer>
		<layer id="336" name="1831183515878" type="Const" version="opset1">
			<data element_type="f16" offset="13054" shape="" size="2"/>
			<output>
				<port id="0" precision="FP16"/>
			</output>
		</layer>
		<layer id="337" name="1668167214462" type="Const" version="opset1">
			<data element_type="f16" offset="13056" shape="" size="2"/>
			<output>
				<port id="0" precision="FP16"/>
			</output>
		</layer>
		<layer id="338" name="1669167313730" type="Const" version="opset1">
			<data element_type="f16" offset="13058" shape="" size="2"/>
			<output>
				<port id="0" precision="FP16"/>
			</output>
		</layer>
		<layer id="339" name="1670167414756" type="Const" version="opset1">
			<data element_type="f16" offset="13056" shape="" size="2"/>
			<output>
				<port id="0" precision="FP16"/>
			</output>
		</layer>
		<layer id="340" name="1671167515554" type="Const" version="opset1">
			<data element_type="f16" offset="13058" shape="" size="2"/>
			<output>
				<port id="0" precision="FP16"/>
			</output>
		</layer>
		<layer id="341" name="2658266213754" type="Const" version="opset1">
			<data element_type="f16" offset="13060" shape="" size="2"/>
			<output>
				<port id="0" precision="FP16"/>
			</output>
		</layer>
		<layer id="342" name="2659266315503" type="Const" version="opset1">
			<data element_type="f16" offset="13062" shape="" size="2"/>
			<output>
				<port id="0" precision="FP16"/>
			</output>
		</layer>
		<layer id="343" name="2660266414762" type="Const" version="opset1">
			<data element_type="f16" offset="13060" shape="" size="2"/>
			<output>
				<port id="0" precision="FP16"/>
			</output>
		</layer>
		<layer id="344" name="2661266516187" type="Const" version="opset1">
			<data element_type="f16" offset="13062" shape="" size="2"/>
			<output>
				<port id="0" precision="FP16"/>
			</output>
		</layer>
		<layer id="345" name="1628163215674" type="Const" version="opset1">
			<data element_type="f16" offset="2572" shape="" size="2"/>
			<output>
				<port id="0" precision="FP16"/>
			</output>
		</layer>
		<layer id="346" name="1629163315944" type="Const" version="opset1">
			<data element_type="f16" offset="13064" shape="" size="2"/>
			<output>
				<port id="0" precision="FP16"/>
			</output>
		</layer>
		<layer id="347" name="1630163414126" type="Const" version="opset1">
			<data element_type="f16" offset="2572" shape="" size="2"/>
			<output>
				<port id="0" precision="FP16"/>
			</output>
		</layer>
		<layer id="348" name="1631163513970" type="Const" version="opset1">
			<data element_type="f16" offset="13064" shape="" size="2"/>
			<output>
				<port id="0" precision="FP16"/>
			</output>
		</layer>
		<layer id="349" name="3798380215167" type="Const" version="opset1">
			<data element_type="f16" offset="13066" shape="1,128,1,1" size="256"/>
			<output>
				<port id="0" precision="FP16">
					<dim>1</dim>
					<dim>128</dim>
					<dim>1</dim>
					<dim>1</dim>
				</port>
			</output>
		</layer>
		<layer id="350" name="3799380314219" type="Const" version="opset1">
			<data element_type="f16" offset="13322" shape="1,128,1,1" size="256"/>
			<output>
				<port id="0" precision="FP16">
					<dim>1</dim>
					<dim>128</dim>
					<dim>1</dim>
					<dim>1</dim>
				</port>
			</output>
		</layer>
		<layer id="351" name="3800380414111" type="Const" version="opset1">
			<data element_type="f16" offset="13066" shape="1,128,1,1" size="256"/>
			<output>
				<port id="0" precision="FP16">
					<dim>1</dim>
					<dim>128</dim>
					<dim>1</dim>
					<dim>1</dim>
				</port>
			</output>
		</layer>
		<layer id="352" name="3801380514948" type="Const" version="opset1">
			<data element_type="f16" offset="13322" shape="1,128,1,1" size="256"/>
			<output>
				<port id="0" precision="FP16">
					<dim>1</dim>
					<dim>128</dim>
					<dim>1</dim>
					<dim>1</dim>
				</port>
			</output>
		</layer>
		<layer id="353" name="3468347215419" type="Const" version="opset1">
			<data element_type="f16" offset="13578" shape="" size="2"/>
			<output>
				<port id="0" precision="FP16"/>
			</output>
		</layer>
		<layer id="354" name="3469347315164" type="Const" version="opset1">
			<data element_type="f16" offset="13580" shape="" size="2"/>
			<output>
				<port id="0" precision="FP16"/>
			</output>
		</layer>
		<layer id="355" name="3470347415194" type="Const" version="opset1">
			<data element_type="f16" offset="13578" shape="" size="2"/>
			<output>
				<port id="0" precision="FP16"/>
			</output>
		</layer>
		<layer id="356" name="3471347513868" type="Const" version="opset1">
			<data element_type="f16" offset="13580" shape="" size="2"/>
			<output>
				<port id="0" precision="FP16"/>
			</output>
		</layer>
		<layer id="357" name="2898290214294" type="Const" version="opset1">
			<data element_type="f16" offset="13582" shape="" size="2"/>
			<output>
				<port id="0" precision="FP16"/>
			</output>
		</layer>
		<layer id="358" name="2899290316100" type="Const" version="opset1">
			<data element_type="f16" offset="13584" shape="" size="2"/>
			<output>
				<port id="0" precision="FP16"/>
			</output>
		</layer>
		<layer id="359" name="2900290413760" type="Const" version="opset1">
			<data element_type="f16" offset="13582" shape="" size="2"/>
			<output>
				<port id="0" precision="FP16"/>
			</output>
		</layer>
		<layer id="360" name="2901290514789" type="Const" version="opset1">
			<data element_type="f16" offset="13584" shape="" size="2"/>
			<output>
				<port id="0" precision="FP16"/>
			</output>
		</layer>
		<layer id="361" name="3368337214048" type="Const" version="opset1">
			<data element_type="f16" offset="2572" shape="" size="2"/>
			<output>
				<port id="0" precision="FP16"/>
			</output>
		</layer>
		<layer id="362" name="3369337316091" type="Const" version="opset1">
			<data element_type="f16" offset="13586" shape="" size="2"/>
			<output>
				<port id="0" precision="FP16"/>
			</output>
		</layer>
		<layer id="363" name="3370337414456" type="Const" version="opset1">
			<data element_type="f16" offset="2572" shape="" size="2"/>
			<output>
				<port id="0" precision="FP16"/>
			</output>
		</layer>
		<layer id="364" name="3371337514438" type="Const" version="opset1">
			<data element_type="f16" offset="13586" shape="" size="2"/>
			<output>
				<port id="0" precision="FP16"/>
			</output>
		</layer>
		<layer id="365" name="1908191215137" type="Const" version="opset1">
			<data element_type="f16" offset="13588" shape="" size="2"/>
			<output>
				<port id="0" precision="FP16"/>
			</output>
		</layer>
		<layer id="366" name="1909191314102" type="Const" version="opset1">
			<data element_type="f16" offset="13590" shape="" size="2"/>
			<output>
				<port id="0" precision="FP16"/>
			</output>
		</layer>
		<layer id="367" name="1910191415704" type="Const" version="opset1">
			<data element_type="f16" offset="13588" shape="" size="2"/>
			<output>
				<port id="0" precision="FP16"/>
			</output>
		</layer>
		<layer id="368" name="1911191514258" type="Const" version="opset1">
			<data element_type="f16" offset="13590" shape="" size="2"/>
			<output>
				<port id="0" precision="FP16"/>
			</output>
		</layer>
		<layer id="369" name="2548255214591" type="Const" version="opset1">
			<data element_type="f16" offset="13592" shape="" size="2"/>
			<output>
				<port id="0" precision="FP16"/>
			</output>
		</layer>
		<layer id="370" name="2549255315224" type="Const" version="opset1">
			<data element_type="f16" offset="13594" shape="" size="2"/>
			<output>
				<port id="0" precision="FP16"/>
			</output>
		</layer>
		<layer id="371" name="2550255414009" type="Const" version="opset1">
			<data element_type="f16" offset="13592" shape="" size="2"/>
			<output>
				<port id="0" precision="FP16"/>
			</output>
		</layer>
		<layer id="372" name="2551255515212" type="Const" version="opset1">
			<data element_type="f16" offset="13594" shape="" size="2"/>
			<output>
				<port id="0" precision="FP16"/>
			</output>
		</layer>
		<layer id="373" name="3698370214972" type="Const" version="opset1">
			<data element_type="f16" offset="13596" shape="" size="2"/>
			<output>
				<port id="0" precision="FP16"/>
			</output>
		</layer>
		<layer id="374" name="3699370315422" type="Const" version="opset1">
			<data element_type="f16" offset="13598" shape="" size="2"/>
			<output>
				<port id="0" precision="FP16"/>
			</output>
		</layer>
		<layer id="375" name="3700370416136" type="Const" version="opset1">
			<data element_type="f16" offset="13596" shape="" size="2"/>
			<output>
				<port id="0" precision="FP16"/>
			</output>
		</layer>
		<layer id="376" name="3701370514153" type="Const" version="opset1">
			<data element_type="f16" offset="13598" shape="" size="2"/>
			<output>
				<port id="0" precision="FP16"/>
			</output>
		</layer>
		<layer id="377" name="3178318215299" type="Const" version="opset1">
			<data element_type="f16" offset="13600" shape="" size="2"/>
			<output>
				<port id="0" precision="FP16"/>
			</output>
		</layer>
		<layer id="378" name="3179318315236" type="Const" version="opset1">
			<data element_type="f16" offset="13602" shape="" size="2"/>
			<output>
				<port id="0" precision="FP16"/>
			</output>
		</layer>
		<layer id="379" name="3180318415935" type="Const" version="opset1">
			<data element_type="f16" offset="13600" shape="" size="2"/>
			<output>
				<port id="0" precision="FP16"/>
			</output>
		</layer>
		<layer id="380" name="3181318513826" type="Const" version="opset1">
			<data element_type="f16" offset="13602" shape="" size="2"/>
			<output>
				<port id="0" precision="FP16"/>
			</output>
		</layer>
		<layer id="381" name="3738374216238" type="Const" version="opset1">
			<data element_type="f16" offset="13066" shape="1,128,1,1" size="256"/>
			<output>
				<port id="0" precision="FP16">
					<dim>1</dim>
					<dim>128</dim>
					<dim>1</dim>
					<dim>1</dim>
				</port>
			</output>
		</layer>
		<layer id="382" name="3739374315431" type="Const" version="opset1">
			<data element_type="f16" offset="13604" shape="1,128,1,1" size="256"/>
			<output>
				<port id="0" precision="FP16">
					<dim>1</dim>
					<dim>128</dim>
					<dim>1</dim>
					<dim>1</dim>
				</port>
			</output>
		</layer>
		<layer id="383" name="3740374414888" type="Const" version="opset1">
			<data element_type="f16" offset="13066" shape="1,128,1,1" size="256"/>
			<output>
				<port id="0" precision="FP16">
					<dim>1</dim>
					<dim>128</dim>
					<dim>1</dim>
					<dim>1</dim>
				</port>
			</output>
		</layer>
		<layer id="384" name="3741374515038" type="Const" version="opset1">
			<data element_type="f16" offset="13604" shape="1,128,1,1" size="256"/>
			<output>
				<port id="0" precision="FP16">
					<dim>1</dim>
					<dim>128</dim>
					<dim>1</dim>
					<dim>1</dim>
				</port>
			</output>
		</layer>
		<layer id="385" name="2578258213937" type="Const" version="opset1">
			<data element_type="f16" offset="13860" shape="" size="2"/>
			<output>
				<port id="0" precision="FP16"/>
			</output>
		</layer>
		<layer id="386" name="2579258314450" type="Const" version="opset1">
			<data element_type="f16" offset="13862" shape="" size="2"/>
			<output>
				<port id="0" precision="FP16"/>
			</output>
		</layer>
		<layer id="387" name="2580258415620" type="Const" version="opset1">
			<data element_type="f16" offset="13860" shape="" size="2"/>
			<output>
				<port id="0" precision="FP16"/>
			</output>
		</layer>
		<layer id="388" name="2581258514846" type="Const" version="opset1">
			<data element_type="f16" offset="13862" shape="" size="2"/>
			<output>
				<port id="0" precision="FP16"/>
			</output>
		</layer>
		<layer id="389" name="3538354215482" type="Const" version="opset1">
			<data element_type="f16" offset="13864" shape="" size="2"/>
			<output>
				<port id="0" precision="FP16"/>
			</output>
		</layer>
		<layer id="390" name="3539354314744" type="Const" version="opset1">
			<data element_type="f16" offset="13866" shape="" size="2"/>
			<output>
				<port id="0" precision="FP16"/>
			</output>
		</layer>
		<layer id="391" name="3540354414141" type="Const" version="opset1">
			<data element_type="f16" offset="13864" shape="" size="2"/>
			<output>
				<port id="0" precision="FP16"/>
			</output>
		</layer>
		<layer id="392" name="3541354514903" type="Const" version="opset1">
			<data element_type="f16" offset="13866" shape="" size="2"/>
			<output>
				<port id="0" precision="FP16"/>
			</output>
		</layer>
		<layer id="393" name="3518352216250" type="Const" version="opset1">
			<data element_type="f16" offset="2572" shape="" size="2"/>
			<output>
				<port id="0" precision="FP16"/>
			</output>
		</layer>
		<layer id="394" name="3519352315515" type="Const" version="opset1">
			<data element_type="f16" offset="13868" shape="" size="2"/>
			<output>
				<port id="0" precision="FP16"/>
			</output>
		</layer>
		<layer id="395" name="3520352415998" type="Const" version="opset1">
			<data element_type="f16" offset="2572" shape="" size="2"/>
			<output>
				<port id="0" precision="FP16"/>
			</output>
		</layer>
		<layer id="396" name="3521352514393" type="Const" version="opset1">
			<data element_type="f16" offset="13868" shape="" size="2"/>
			<output>
				<port id="0" precision="FP16"/>
			</output>
		</layer>
		<layer id="397" name="3378338215746" type="Const" version="opset1">
			<data element_type="f16" offset="2572" shape="" size="2"/>
			<output>
				<port id="0" precision="FP16"/>
			</output>
		</layer>
		<layer id="398" name="3379338315149" type="Const" version="opset1">
			<data element_type="f16" offset="13870" shape="" size="2"/>
			<output>
				<port id="0" precision="FP16"/>
			</output>
		</layer>
		<layer id="399" name="3380338415257" type="Const" version="opset1">
			<data element_type="f16" offset="2572" shape="" size="2"/>
			<output>
				<port id="0" precision="FP16"/>
			</output>
		</layer>
		<layer id="400" name="3381338516085" type="Const" version="opset1">
			<data element_type="f16" offset="13870" shape="" size="2"/>
			<output>
				<port id="0" precision="FP16"/>
			</output>
		</layer>
		<layer id="401" name="3258326215071" type="Const" version="opset1">
			<data element_type="f16" offset="13872" shape="" size="2"/>
			<output>
				<port id="0" precision="FP16"/>
			</output>
		</layer>
		<layer id="402" name="3259326314447" type="Const" version="opset1">
			<data element_type="f16" offset="13874" shape="" size="2"/>
			<output>
				<port id="0" precision="FP16"/>
			</output>
		</layer>
		<layer id="403" name="3260326414198" type="Const" version="opset1">
			<data element_type="f16" offset="13872" shape="" size="2"/>
			<output>
				<port id="0" precision="FP16"/>
			</output>
		</layer>
		<layer id="404" name="3261326515479" type="Const" version="opset1">
			<data element_type="f16" offset="13874" shape="" size="2"/>
			<output>
				<port id="0" precision="FP16"/>
			</output>
		</layer>
		<layer id="405" name="3418342216097" type="Const" version="opset1">
			<data element_type="f16" offset="13876" shape="" size="2"/>
			<output>
				<port id="0" precision="FP16"/>
			</output>
		</layer>
		<layer id="406" name="3419342315020" type="Const" version="opset1">
			<data element_type="f16" offset="13878" shape="" size="2"/>
			<output>
				<port id="0" precision="FP16"/>
			</output>
		</layer>
		<layer id="407" name="3420342416028" type="Const" version="opset1">
			<data element_type="f16" offset="13876" shape="" size="2"/>
			<output>
				<port id="0" precision="FP16"/>
			</output>
		</layer>
		<layer id="408" name="3421342513958" type="Const" version="opset1">
			<data element_type="f16" offset="13878" shape="" size="2"/>
			<output>
				<port id="0" precision="FP16"/>
			</output>
		</layer>
		<layer id="409" name="2288229215860" type="Const" version="opset1">
			<data element_type="f16" offset="13880" shape="" size="2"/>
			<output>
				<port id="0" precision="FP16"/>
			</output>
		</layer>
		<layer id="410" name="2289229315923" type="Const" version="opset1">
			<data element_type="f16" offset="13882" shape="" size="2"/>
			<output>
				<port id="0" precision="FP16"/>
			</output>
		</layer>
		<layer id="411" name="2290229415623" type="Const" version="opset1">
			<data element_type="f16" offset="13880" shape="" size="2"/>
			<output>
				<port id="0" precision="FP16"/>
			</output>
		</layer>
		<layer id="412" name="2291229514798" type="Const" version="opset1">
			<data element_type="f16" offset="13882" shape="" size="2"/>
			<output>
				<port id="0" precision="FP16"/>
			</output>
		</layer>
		<layer id="413" name="2848285215383" type="Const" version="opset1">
			<data element_type="f16" offset="13884" shape="1,128,1,1" size="256"/>
			<output>
				<port id="0" precision="FP16">
					<dim>1</dim>
					<dim>128</dim>
					<dim>1</dim>
					<dim>1</dim>
				</port>
			</output>
		</layer>
		<layer id="414" name="2849285313865" type="Const" version="opset1">
			<data element_type="f16" offset="14140" shape="1,128,1,1" size="256"/>
			<output>
				<port id="0" precision="FP16">
					<dim>1</dim>
					<dim>128</dim>
					<dim>1</dim>
					<dim>1</dim>
				</port>
			</output>
		</layer>
		<layer id="415" name="2850285416118" type="Const" version="opset1">
			<data element_type="f16" offset="13884" shape="1,128,1,1" size="256"/>
			<output>
				<port id="0" precision="FP16">
					<dim>1</dim>
					<dim>128</dim>
					<dim>1</dim>
					<dim>1</dim>
				</port>
			</output>
		</layer>
		<layer id="416" name="2851285515671" type="Const" version="opset1">
			<data element_type="f16" offset="14140" shape="1,128,1,1" size="256"/>
			<output>
				<port id="0" precision="FP16">
					<dim>1</dim>
					<dim>128</dim>
					<dim>1</dim>
					<dim>1</dim>
				</port>
			</output>
		</layer>
		<layer id="417" name="1888189215602" type="Const" version="opset1">
			<data element_type="f16" offset="14396" shape="" size="2"/>
			<output>
				<port id="0" precision="FP16"/>
			</output>
		</layer>
		<layer id="418" name="1889189316292" type="Const" version="opset1">
			<data element_type="f16" offset="14398" shape="" size="2"/>
			<output>
				<port id="0" precision="FP16"/>
			</output>
		</layer>
		<layer id="419" name="1890189415887" type="Const" version="opset1">
			<data element_type="f16" offset="14396" shape="" size="2"/>
			<output>
				<port id="0" precision="FP16"/>
			</output>
		</layer>
		<layer id="420" name="1891189513829" type="Const" version="opset1">
			<data element_type="f16" offset="14398" shape="" size="2"/>
			<output>
				<port id="0" precision="FP16"/>
			</output>
		</layer>
		<layer id="421" name="3688369215575" type="Const" version="opset1">
			<data element_type="f16" offset="14400" shape="" size="2"/>
			<output>
				<port id="0" precision="FP16"/>
			</output>
		</layer>
		<layer id="422" name="3689369314303" type="Const" version="opset1">
			<data element_type="f16" offset="14402" shape="" size="2"/>
			<output>
				<port id="0" precision="FP16"/>
			</output>
		</layer>
		<layer id="423" name="3690369415239" type="Const" version="opset1">
			<data element_type="f16" offset="14400" shape="" size="2"/>
			<output>
				<port id="0" precision="FP16"/>
			</output>
		</layer>
		<layer id="424" name="3691369514363" type="Const" version="opset1">
			<data element_type="f16" offset="14402" shape="" size="2"/>
			<output>
				<port id="0" precision="FP16"/>
			</output>
		</layer>
		<layer id="425" name="2148215216286" type="Const" version="opset1">
			<data element_type="f16" offset="2572" shape="" size="2"/>
			<output>
				<port id="0" precision="FP16"/>
			</output>
		</layer>
		<layer id="426" name="2149215315884" type="Const" version="opset1">
			<data element_type="f16" offset="14404" shape="" size="2"/>
			<output>
				<port id="0" precision="FP16"/>
			</output>
		</layer>
		<layer id="427" name="2150215416193" type="Const" version="opset1">
			<data element_type="f16" offset="2572" shape="" size="2"/>
			<output>
				<port id="0" precision="FP16"/>
			</output>
		</layer>
		<layer id="428" name="2151215515485" type="Const" version="opset1">
			<data element_type="f16" offset="14404" shape="" size="2"/>
			<output>
				<port id="0" precision="FP16"/>
			</output>
		</layer>
		<layer id="429" name="3448345215938" type="Const" version="opset1">
			<data element_type="f16" offset="14406" shape="" size="2"/>
			<output>
				<port id="0" precision="FP16"/>
			</output>
		</layer>
		<layer id="430" name="3449345315521" type="Const" version="opset1">
			<data element_type="f16" offset="14408" shape="" size="2"/>
			<output>
				<port id="0" precision="FP16"/>
			</output>
		</layer>
		<layer id="431" name="3450345415650" type="Const" version="opset1">
			<data element_type="f16" offset="14406" shape="" size="2"/>
			<output>
				<port id="0" precision="FP16"/>
			</output>
		</layer>
		<layer id="432" name="3451345514120" type="Const" version="opset1">
			<data element_type="f16" offset="14408" shape="" size="2"/>
			<output>
				<port id="0" precision="FP16"/>
			</output>
		</layer>
		<layer id="433" name="3608361216268" type="Const" version="opset1">
			<data element_type="f16" offset="14410" shape="" size="2"/>
			<output>
				<port id="0" precision="FP16"/>
			</output>
		</layer>
		<layer id="434" name="3609361315968" type="Const" version="opset1">
			<data element_type="f16" offset="14412" shape="" size="2"/>
			<output>
				<port id="0" precision="FP16"/>
			</output>
		</layer>
		<layer id="435" name="3610361414402" type="Const" version="opset1">
			<data element_type="f16" offset="14410" shape="" size="2"/>
			<output>
				<port id="0" precision="FP16"/>
			</output>
		</layer>
		<layer id="436" name="3611361514645" type="Const" version="opset1">
			<data element_type="f16" offset="14412" shape="" size="2"/>
			<output>
				<port id="0" precision="FP16"/>
			</output>
		</layer>
		<layer id="437" name="3668367215374" type="Const" version="opset1">
			<data element_type="f16" offset="14414" shape="" size="2"/>
			<output>
				<port id="0" precision="FP16"/>
			</output>
		</layer>
		<layer id="438" name="3669367316322" type="Const" version="opset1">
			<data element_type="f16" offset="14416" shape="" size="2"/>
			<output>
				<port id="0" precision="FP16"/>
			</output>
		</layer>
		<layer id="439" name="3670367414921" type="Const" version="opset1">
			<data element_type="f16" offset="14414" shape="" size="2"/>
			<output>
				<port id="0" precision="FP16"/>
			</output>
		</layer>
		<layer id="440" name="3671367515707" type="Const" version="opset1">
			<data element_type="f16" offset="14416" shape="" size="2"/>
			<output>
				<port id="0" precision="FP16"/>
			</output>
		</layer>
		<layer id="441" name="3588359214654" type="Const" version="opset1">
			<data element_type="f16" offset="14418" shape="" size="2"/>
			<output>
				<port id="0" precision="FP16"/>
			</output>
		</layer>
		<layer id="442" name="3589359315050" type="Const" version="opset1">
			<data element_type="f16" offset="14420" shape="" size="2"/>
			<output>
				<port id="0" precision="FP16"/>
			</output>
		</layer>
		<layer id="443" name="3590359415182" type="Const" version="opset1">
			<data element_type="f16" offset="14418" shape="" size="2"/>
			<output>
				<port id="0" precision="FP16"/>
			</output>
		</layer>
		<layer id="444" name="3591359515497" type="Const" version="opset1">
			<data element_type="f16" offset="14420" shape="" size="2"/>
			<output>
				<port id="0" precision="FP16"/>
			</output>
		</layer>
		<layer id="445" name="2668267215959" type="Const" version="opset1">
			<data element_type="f16" offset="13066" shape="1,128,1,1" size="256"/>
			<output>
				<port id="0" precision="FP16">
					<dim>1</dim>
					<dim>128</dim>
					<dim>1</dim>
					<dim>1</dim>
				</port>
			</output>
		</layer>
		<layer id="446" name="2669267314636" type="Const" version="opset1">
			<data element_type="f16" offset="14422" shape="1,128,1,1" size="256"/>
			<output>
				<port id="0" precision="FP16">
					<dim>1</dim>
					<dim>128</dim>
					<dim>1</dim>
					<dim>1</dim>
				</port>
			</output>
		</layer>
		<layer id="447" name="2670267415686" type="Const" version="opset1">
			<data element_type="f16" offset="13066" shape="1,128,1,1" size="256"/>
			<output>
				<port id="0" precision="FP16">
					<dim>1</dim>
					<dim>128</dim>
					<dim>1</dim>
					<dim>1</dim>
				</port>
			</output>
		</layer>
		<layer id="448" name="2671267515452" type="Const" version="opset1">
			<data element_type="f16" offset="14422" shape="1,128,1,1" size="256"/>
			<output>
				<port id="0" precision="FP16">
					<dim>1</dim>
					<dim>128</dim>
					<dim>1</dim>
					<dim>1</dim>
				</port>
			</output>
		</layer>
		<layer id="449" name="2828283215449" type="Const" version="opset1">
			<data element_type="f16" offset="14678" shape="" size="2"/>
			<output>
				<port id="0" precision="FP16"/>
			</output>
		</layer>
		<layer id="450" name="2829283314534" type="Const" version="opset1">
			<data element_type="f16" offset="14680" shape="" size="2"/>
			<output>
				<port id="0" precision="FP16"/>
			</output>
		</layer>
		<layer id="451" name="2830283414054" type="Const" version="opset1">
			<data element_type="f16" offset="14678" shape="" size="2"/>
			<output>
				<port id="0" precision="FP16"/>
			</output>
		</layer>
		<layer id="452" name="2831283515701" type="Const" version="opset1">
			<data element_type="f16" offset="14680" shape="" size="2"/>
			<output>
				<port id="0" precision="FP16"/>
			</output>
		</layer>
		<layer id="453" name="3328333215920" type="Const" version="opset1">
			<data element_type="f16" offset="2572" shape="" size="2"/>
			<output>
				<port id="0" precision="FP16"/>
			</output>
		</layer>
		<layer id="454" name="3329333313718" type="Const" version="opset1">
			<data element_type="f16" offset="14682" shape="" size="2"/>
			<output>
				<port id="0" precision="FP16"/>
			</output>
		</layer>
		<layer id="455" name="3330333413772" type="Const" version="opset1">
			<data element_type="f16" offset="2572" shape="" size="2"/>
			<output>
				<port id="0" precision="FP16"/>
			</output>
		</layer>
		<layer id="456" name="3331333514045" type="Const" version="opset1">
			<data element_type="f16" offset="14682" shape="" size="2"/>
			<output>
				<port id="0" precision="FP16"/>
			</output>
		</layer>
		<layer id="457" name="2308231214444" type="Const" version="opset1">
			<data element_type="f16" offset="2572" shape="" size="2"/>
			<output>
				<port id="0" precision="FP16"/>
			</output>
		</layer>
		<layer id="458" name="2309231314687" type="Const" version="opset1">
			<data element_type="f16" offset="14684" shape="" size="2"/>
			<output>
				<port id="0" precision="FP16"/>
			</output>
		</layer>
		<layer id="459" name="2310231414210" type="Const" version="opset1">
			<data element_type="f16" offset="2572" shape="" size="2"/>
			<output>
				<port id="0" precision="FP16"/>
			</output>
		</layer>
		<layer id="460" name="2311231514468" type="Const" version="opset1">
			<data element_type="f16" offset="14684" shape="" size="2"/>
			<output>
				<port id="0" precision="FP16"/>
			</output>
		</layer>
		<layer id="461" name="1648165216295" type="Const" version="opset1">
			<data element_type="f16" offset="14686" shape="" size="2"/>
			<output>
				<port id="0" precision="FP16"/>
			</output>
		</layer>
		<layer id="462" name="1649165313727" type="Const" version="opset1">
			<data element_type="f16" offset="14688" shape="" size="2"/>
			<output>
				<port id="0" precision="FP16"/>
			</output>
		</layer>
		<layer id="463" name="1650165414315" type="Const" version="opset1">
			<data element_type="f16" offset="14686" shape="" size="2"/>
			<output>
				<port id="0" precision="FP16"/>
			</output>
		</layer>
		<layer id="464" name="1651165514615" type="Const" version="opset1">
			<data element_type="f16" offset="14688" shape="" size="2"/>
			<output>
				<port id="0" precision="FP16"/>
			</output>
		</layer>
		<layer id="465" name="3758376215980" type="Const" version="opset1">
			<data element_type="f16" offset="14690" shape="" size="2"/>
			<output>
				<port id="0" precision="FP16"/>
			</output>
		</layer>
		<layer id="466" name="3759376316094" type="Const" version="opset1">
			<data element_type="f16" offset="14692" shape="" size="2"/>
			<output>
				<port id="0" precision="FP16"/>
			</output>
		</layer>
		<layer id="467" name="3760376416127" type="Const" version="opset1">
			<data element_type="f16" offset="14690" shape="" size="2"/>
			<output>
				<port id="0" precision="FP16"/>
			</output>
		</layer>
		<layer id="468" name="3761376513916" type="Const" version="opset1">
			<data element_type="f16" offset="14692" shape="" size="2"/>
			<output>
				<port id="0" precision="FP16"/>
			</output>
		</layer>
		<layer id="469" name="2508251214339" type="Const" version="opset1">
			<data element_type="f16" offset="14694" shape="" size="2"/>
			<output>
				<port id="0" precision="FP16"/>
			</output>
		</layer>
		<layer id="470" name="2509251314309" type="Const" version="opset1">
			<data element_type="f16" offset="14696" shape="" size="2"/>
			<output>
				<port id="0" precision="FP16"/>
			</output>
		</layer>
		<layer id="471" name="2510251415770" type="Const" version="opset1">
			<data element_type="f16" offset="14694" shape="" size="2"/>
			<output>
				<port id="0" precision="FP16"/>
			</output>
		</layer>
		<layer id="472" name="2511251515425" type="Const" version="opset1">
			<data element_type="f16" offset="14696" shape="" size="2"/>
			<output>
				<port id="0" precision="FP16"/>
			</output>
		</layer>
		<layer id="473" name="2008201213790" type="Const" version="opset1">
			<data element_type="f16" offset="14698" shape="1,128,1,1" size="256"/>
			<output>
				<port id="0" precision="FP16">
					<dim>1</dim>
					<dim>128</dim>
					<dim>1</dim>
					<dim>1</dim>
				</port>
			</output>
		</layer>
		<layer id="474" name="2009201313853" type="Const" version="opset1">
			<data element_type="f16" offset="14954" shape="1,128,1,1" size="256"/>
			<output>
				<port id="0" precision="FP16">
					<dim>1</dim>
					<dim>128</dim>
					<dim>1</dim>
					<dim>1</dim>
				</port>
			</output>
		</layer>
		<layer id="475" name="2010201414579" type="Const" version="opset1">
			<data element_type="f16" offset="14698" shape="1,128,1,1" size="256"/>
			<output>
				<port id="0" precision="FP16">
					<dim>1</dim>
					<dim>128</dim>
					<dim>1</dim>
					<dim>1</dim>
				</port>
			</output>
		</layer>
		<layer id="476" name="2011201515593" type="Const" version="opset1">
			<data element_type="f16" offset="14954" shape="1,128,1,1" size="256"/>
			<output>
				<port id="0" precision="FP16">
					<dim>1</dim>
					<dim>128</dim>
					<dim>1</dim>
					<dim>1</dim>
				</port>
			</output>
		</layer>
		<layer id="477" name="2248225214837" type="Const" version="opset1">
			<data element_type="f16" offset="15210" shape="" size="2"/>
			<output>
				<port id="0" precision="FP16"/>
			</output>
		</layer>
		<layer id="478" name="2249225314312" type="Const" version="opset1">
			<data element_type="f16" offset="15212" shape="" size="2"/>
			<output>
				<port id="0" precision="FP16"/>
			</output>
		</layer>
		<layer id="479" name="2250225414051" type="Const" version="opset1">
			<data element_type="f16" offset="15210" shape="" size="2"/>
			<output>
				<port id="0" precision="FP16"/>
			</output>
		</layer>
		<layer id="480" name="2251225515992" type="Const" version="opset1">
			<data element_type="f16" offset="15212" shape="" size="2"/>
			<output>
				<port id="0" precision="FP16"/>
			</output>
		</layer>
		<layer id="481" name="2058206215092" type="Const" version="opset1">
			<data element_type="f16" offset="15214" shape="1,64,1,1" size="128"/>
			<output>
				<port id="0" precision="FP16">
					<dim>1</dim>
					<dim>64</dim>
					<dim>1</dim>
					<dim>1</dim>
				</port>
			</output>
		</layer>
		<layer id="482" name="2059206314957" type="Const" version="opset1">
			<data element_type="f16" offset="15342" shape="1,64,1,1" size="128"/>
			<output>
				<port id="0" precision="FP16">
					<dim>1</dim>
					<dim>64</dim>
					<dim>1</dim>
					<dim>1</dim>
				</port>
			</output>
		</layer>
		<layer id="483" name="2060206415512" type="Const" version="opset1">
			<data element_type="f16" offset="15214" shape="1,64,1,1" size="128"/>
			<output>
				<port id="0" precision="FP16">
					<dim>1</dim>
					<dim>64</dim>
					<dim>1</dim>
					<dim>1</dim>
				</port>
			</output>
		</layer>
		<layer id="484" name="2061206514585" type="Const" version="opset1">
			<data element_type="f16" offset="15342" shape="1,64,1,1" size="128"/>
			<output>
				<port id="0" precision="FP16">
					<dim>1</dim>
					<dim>64</dim>
					<dim>1</dim>
					<dim>1</dim>
				</port>
			</output>
		</layer>
		<layer id="485" name="3568357215185" type="Const" version="opset1">
			<data element_type="f16" offset="15470" shape="" size="2"/>
			<output>
				<port id="0" precision="FP16"/>
			</output>
		</layer>
		<layer id="486" name="3569357315209" type="Const" version="opset1">
			<data element_type="f16" offset="15472" shape="" size="2"/>
			<output>
				<port id="0" precision="FP16"/>
			</output>
		</layer>
		<layer id="487" name="3570357415638" type="Const" version="opset1">
			<data element_type="f16" offset="15470" shape="" size="2"/>
			<output>
				<port id="0" precision="FP16"/>
			</output>
		</layer>
		<layer id="488" name="3571357516337" type="Const" version="opset1">
			<data element_type="f16" offset="15472" shape="" size="2"/>
			<output>
				<port id="0" precision="FP16"/>
			</output>
		</layer>
		<layer id="489" name="0" type="Parameter" version="opset1">
			<data element_type="f16" shape="1,3,128,128"/>
			<output>
				<port id="0" names="0" precision="FP16">
					<dim>1</dim>
					<dim>3</dim>
					<dim>128</dim>
					<dim>128</dim>
				</port>
			</output>
		</layer>
		<layer id="490" name="data_mul_1161647916223" type="Const" version="opset1">
			<data element_type="f16" offset="15474" shape="1,3,1,1" size="6"/>
			<output>
				<port id="0" precision="FP16">
					<dim>1</dim>
					<dim>3</dim>
					<dim>1</dim>
					<dim>1</dim>
				</port>
			</output>
		</layer>
		<layer id="491" name="0/scale/Fused_Mul_" type="Multiply" version="opset1">
			<data auto_broadcast="numpy"/>
			<input>
				<port id="0">
					<dim>1</dim>
					<dim>3</dim>
					<dim>128</dim>
					<dim>128</dim>
				</port>
				<port id="1">
					<dim>1</dim>
					<dim>3</dim>
					<dim>1</dim>
					<dim>1</dim>
				</port>
			</input>
			<output>
				<port id="2" precision="FP16">
					<dim>1</dim>
					<dim>3</dim>
					<dim>128</dim>
					<dim>128</dim>
				</port>
			</output>
		</layer>
		<layer id="492" name="data_add_1161848114138" type="Const" version="opset1">
			<data element_type="f16" offset="15480" shape="1,3,1,1" size="6"/>
			<output>
				<port id="0" precision="FP16">
					<dim>1</dim>
					<dim>3</dim>
					<dim>1</dim>
					<dim>1</dim>
				</port>
			</output>
		</layer>
		<layer id="493" name="409/variance/Fused_Add_" type="Add" version="opset1">
			<data auto_broadcast="numpy"/>
			<input>
				<port id="0">
					<dim>1</dim>
					<dim>3</dim>
					<dim>128</dim>
					<dim>128</dim>
				</port>
				<port id="1">
					<dim>1</dim>
					<dim>3</dim>
					<dim>1</dim>
					<dim>1</dim>
				</port>
			</input>
			<output>
				<port id="2" names="409" precision="FP16">
					<dim>1</dim>
					<dim>3</dim>
					<dim>128</dim>
					<dim>128</dim>
				</port>
			</output>
		</layer>
		<layer id="494" name="410/fq_input_0" type="FakeQuantize" version="opset1">
			<data auto_broadcast="numpy" levels="256"/>
			<input>
				<port id="0">
					<dim>1</dim>
					<dim>3</dim>
					<dim>128</dim>
					<dim>128</dim>
				</port>
				<port id="1"/>
				<port id="2"/>
				<port id="3"/>
				<port id="4"/>
			</input>
			<output>
				<port id="5" precision="FP16">
					<dim>1</dim>
					<dim>3</dim>
					<dim>128</dim>
					<dim>128</dim>
				</port>
			</output>
		</layer>
		<layer id="495" name="411/mean/Fused_Mul__copy4837149/quantized990015365" type="Const" version="opset1">
			<data element_type="i8" offset="15486" shape="64,3,3,3" size="1728"/>
			<output>
				<port id="0" precision="I8">
					<dim>64</dim>
					<dim>3</dim>
					<dim>3</dim>
					<dim>3</dim>
				</port>
			</output>
		</layer>
		<layer id="496" name="411/mean/Fused_Mul__copy4837149/quantized/to_f16" type="Convert" version="opset1">
			<data destination_type="f16"/>
			<input>
				<port id="0">
					<dim>64</dim>
					<dim>3</dim>
					<dim>3</dim>
					<dim>3</dim>
				</port>
			</input>
			<output>
				<port id="1" precision="FP16">
					<dim>64</dim>
					<dim>3</dim>
					<dim>3</dim>
					<dim>3</dim>
				</port>
			</output>
		</layer>
		<layer id="497" name="410/fq_weights_1/zero_point991315473" type="Const" version="opset1">
			<data element_type="f16" offset="17214" shape="64,1,1,1" size="128"/>
			<output>
				<port id="0" precision="FP16">
					<dim>64</dim>
					<dim>1</dim>
					<dim>1</dim>
					<dim>1</dim>
				</port>
			</output>
		</layer>
		<layer id="498" name="410/fq_weights_1/minus_zp" type="Subtract" version="opset1">
			<data auto_broadcast="numpy"/>
			<input>
				<port id="0">
					<dim>64</dim>
					<dim>3</dim>
					<dim>3</dim>
					<dim>3</dim>
				</port>
				<port id="1">
					<dim>64</dim>
					<dim>1</dim>
					<dim>1</dim>
					<dim>1</dim>
				</port>
			</input>
			<output>
				<port id="2" precision="FP16">
					<dim>64</dim>
					<dim>3</dim>
					<dim>3</dim>
					<dim>3</dim>
				</port>
			</output>
		</layer>
		<layer id="499" name="410/fq_weights_1/scale990816130" type="Const" version="opset1">
			<data element_type="f16" offset="17342" shape="64,1,1,1" size="128"/>
			<output>
				<port id="0" precision="FP16">
					<dim>64</dim>
					<dim>1</dim>
					<dim>1</dim>
					<dim>1</dim>
				</port>
			</output>
		</layer>
		<layer id="500" name="410/fq_weights_1/mulpiply_by_scale" type="Multiply" version="opset1">
			<data auto_broadcast="numpy"/>
			<input>
				<port id="0">
					<dim>64</dim>
					<dim>3</dim>
					<dim>3</dim>
					<dim>3</dim>
				</port>
				<port id="1">
					<dim>64</dim>
					<dim>1</dim>
					<dim>1</dim>
					<dim>1</dim>
				</port>
			</input>
			<output>
				<port id="2" precision="FP16">
					<dim>64</dim>
					<dim>3</dim>
					<dim>3</dim>
					<dim>3</dim>
				</port>
			</output>
		</layer>
		<layer id="501" name="410" type="Convolution" version="opset1">
			<data auto_pad="explicit" dilations="1,1" pads_begin="1,1" pads_end="1,1" strides="2,2"/>
			<input>
				<port id="0">
					<dim>1</dim>
					<dim>3</dim>
					<dim>128</dim>
					<dim>128</dim>
				</port>
				<port id="1">
					<dim>64</dim>
					<dim>3</dim>
					<dim>3</dim>
					<dim>3</dim>
				</port>
			</input>
			<output>
				<port id="2" precision="FP16">
					<dim>1</dim>
					<dim>64</dim>
					<dim>64</dim>
					<dim>64</dim>
				</port>
			</output>
		</layer>
		<layer id="502" name="data_add_116211162648514486" type="Const" version="opset1">
			<data element_type="f16" offset="17470" shape="1,64,1,1" size="128"/>
			<output>
				<port id="0" precision="FP16">
					<dim>1</dim>
					<dim>64</dim>
					<dim>1</dim>
					<dim>1</dim>
				</port>
			</output>
		</layer>
		<layer id="503" name="411/variance/Fused_Add_" type="Add" version="opset1">
			<data auto_broadcast="numpy"/>
			<input>
				<port id="0">
					<dim>1</dim>
					<dim>64</dim>
					<dim>64</dim>
					<dim>64</dim>
				</port>
				<port id="1">
					<dim>1</dim>
					<dim>64</dim>
					<dim>1</dim>
					<dim>1</dim>
				</port>
			</input>
			<output>
				<port id="2" names="411" precision="FP16">
					<dim>1</dim>
					<dim>64</dim>
					<dim>64</dim>
					<dim>64</dim>
				</port>
			</output>
		</layer>
		<layer id="504" name="12487" type="Const" version="opset1">
			<data element_type="f32" offset="17598" shape="1" size="4"/>
			<output>
				<port id="0" names="12" precision="FP32">
					<dim>1</dim>
				</port>
			</output>
		</layer>
		<layer id="505" name="412" type="PReLU" version="opset1">
			<input>
				<port id="0">
					<dim>1</dim>
					<dim>64</dim>
					<dim>64</dim>
					<dim>64</dim>
				</port>
				<port id="1">
					<dim>1</dim>
				</port>
			</input>
			<output>
				<port id="2" names="412" precision="FP16">
					<dim>1</dim>
					<dim>64</dim>
					<dim>64</dim>
					<dim>64</dim>
				</port>
			</output>
		</layer>
		<layer id="506" name="413/fq_input_0" type="FakeQuantize" version="opset1">
			<data auto_broadcast="numpy" levels="256"/>
			<input>
				<port id="0">
					<dim>1</dim>
					<dim>64</dim>
					<dim>64</dim>
					<dim>64</dim>
				</port>
				<port id="1">
					<dim>1</dim>
					<dim>64</dim>
					<dim>1</dim>
					<dim>1</dim>
				</port>
				<port id="2">
					<dim>1</dim>
					<dim>64</dim>
					<dim>1</dim>
					<dim>1</dim>
				</port>
				<port id="3">
					<dim>1</dim>
					<dim>64</dim>
					<dim>1</dim>
					<dim>1</dim>
				</port>
				<port id="4">
					<dim>1</dim>
					<dim>64</dim>
					<dim>1</dim>
					<dim>1</dim>
				</port>
			</input>
			<output>
				<port id="5" precision="FP16">
					<dim>1</dim>
					<dim>64</dim>
					<dim>64</dim>
					<dim>64</dim>
				</port>
			</output>
		</layer>
		<layer id="507" name="11929/value1193113763" type="Const" version="opset1">
			<data element_type="i64" offset="17602" shape="5" size="40"/>
			<output>
				<port id="0" precision="I64">
					<dim>5</dim>
				</port>
			</output>
		</layer>
		<layer id="508" name="414/mean/Fused_Mul__copy4897152/quantized997215509" type="Const" version="opset1">
			<data element_type="i8" offset="17642" shape="64,1,3,3" size="576"/>
			<output>
				<port id="0" precision="I8">
					<dim>64</dim>
					<dim>1</dim>
					<dim>3</dim>
					<dim>3</dim>
				</port>
			</output>
		</layer>
		<layer id="509" name="414/mean/Fused_Mul__copy4897152/quantized/to_f16" type="Convert" version="opset1">
			<data destination_type="f16"/>
			<input>
				<port id="0">
					<dim>64</dim>
					<dim>1</dim>
					<dim>3</dim>
					<dim>3</dim>
				</port>
			</input>
			<output>
				<port id="1" precision="FP16">
					<dim>64</dim>
					<dim>1</dim>
					<dim>3</dim>
					<dim>3</dim>
				</port>
			</output>
		</layer>
		<layer id="510" name="413/fq_weights_1/zero_point998514735" type="Const" version="opset1">
			<data element_type="f16" offset="18218" shape="64,1,1,1" size="128"/>
			<output>
				<port id="0" precision="FP16">
					<dim>64</dim>
					<dim>1</dim>
					<dim>1</dim>
					<dim>1</dim>
				</port>
			</output>
		</layer>
		<layer id="511" name="413/fq_weights_1/minus_zp" type="Subtract" version="opset1">
			<data auto_broadcast="numpy"/>
			<input>
				<port id="0">
					<dim>64</dim>
					<dim>1</dim>
					<dim>3</dim>
					<dim>3</dim>
				</port>
				<port id="1">
					<dim>64</dim>
					<dim>1</dim>
					<dim>1</dim>
					<dim>1</dim>
				</port>
			</input>
			<output>
				<port id="2" precision="FP16">
					<dim>64</dim>
					<dim>1</dim>
					<dim>3</dim>
					<dim>3</dim>
				</port>
			</output>
		</layer>
		<layer id="512" name="413/fq_weights_1/scale998016169" type="Const" version="opset1">
			<data element_type="f16" offset="18346" shape="64,1,1,1" size="128"/>
			<output>
				<port id="0" precision="FP16">
					<dim>64</dim>
					<dim>1</dim>
					<dim>1</dim>
					<dim>1</dim>
				</port>
			</output>
		</layer>
		<layer id="513" name="413/fq_weights_1/mulpiply_by_scale" type="Multiply" version="opset1">
			<data auto_broadcast="numpy"/>
			<input>
				<port id="0">
					<dim>64</dim>
					<dim>1</dim>
					<dim>3</dim>
					<dim>3</dim>
				</port>
				<port id="1">
					<dim>64</dim>
					<dim>1</dim>
					<dim>1</dim>
					<dim>1</dim>
				</port>
			</input>
			<output>
				<port id="2" precision="FP16">
					<dim>64</dim>
					<dim>1</dim>
					<dim>3</dim>
					<dim>3</dim>
				</port>
			</output>
		</layer>
		<layer id="514" name="11929" type="Reshape" version="opset1">
			<data special_zero="true"/>
			<input>
				<port id="0">
					<dim>64</dim>
					<dim>1</dim>
					<dim>3</dim>
					<dim>3</dim>
				</port>
				<port id="1">
					<dim>5</dim>
				</port>
			</input>
			<output>
				<port id="2" precision="FP16">
					<dim>64</dim>
					<dim>1</dim>
					<dim>1</dim>
					<dim>3</dim>
					<dim>3</dim>
				</port>
			</output>
		</layer>
		<layer id="515" name="413" type="GroupConvolution" version="opset1">
			<data auto_pad="explicit" dilations="1,1" pads_begin="1,1" pads_end="1,1" strides="1,1"/>
			<input>
				<port id="0">
					<dim>1</dim>
					<dim>64</dim>
					<dim>64</dim>
					<dim>64</dim>
				</port>
				<port id="1">
					<dim>64</dim>
					<dim>1</dim>
					<dim>1</dim>
					<dim>3</dim>
					<dim>3</dim>
				</port>
			</input>
			<output>
				<port id="2" precision="FP16">
					<dim>1</dim>
					<dim>64</dim>
					<dim>64</dim>
					<dim>64</dim>
				</port>
			</output>
		</layer>
		<layer id="516" name="data_add_116291163449116031" type="Const" version="opset1">
			<data element_type="f16" offset="18474" shape="1,64,1,1" size="128"/>
			<output>
				<port id="0" precision="FP16">
					<dim>1</dim>
					<dim>64</dim>
					<dim>1</dim>
					<dim>1</dim>
				</port>
			</output>
		</layer>
		<layer id="517" name="414/variance/Fused_Add_" type="Add" version="opset1">
			<data auto_broadcast="numpy"/>
			<input>
				<port id="0">
					<dim>1</dim>
					<dim>64</dim>
					<dim>64</dim>
					<dim>64</dim>
				</port>
				<port id="1">
					<dim>1</dim>
					<dim>64</dim>
					<dim>1</dim>
					<dim>1</dim>
				</port>
			</input>
			<output>
				<port id="2" names="414" precision="FP16">
					<dim>1</dim>
					<dim>64</dim>
					<dim>64</dim>
					<dim>64</dim>
				</port>
			</output>
		</layer>
		<layer id="518" name="19493" type="Const" version="opset1">
			<data element_type="f32" offset="18602" shape="1" size="4"/>
			<output>
				<port id="0" names="19" precision="FP32">
					<dim>1</dim>
				</port>
			</output>
		</layer>
		<layer id="519" name="415" type="PReLU" version="opset1">
			<input>
				<port id="0">
					<dim>1</dim>
					<dim>64</dim>
					<dim>64</dim>
					<dim>64</dim>
				</port>
				<port id="1">
					<dim>1</dim>
				</port>
			</input>
			<output>
				<port id="2" names="415" precision="FP16">
					<dim>1</dim>
					<dim>64</dim>
					<dim>64</dim>
					<dim>64</dim>
				</port>
			</output>
		</layer>
		<layer id="520" name="416/fq_input_0" type="FakeQuantize" version="opset1">
			<data auto_broadcast="numpy" levels="256"/>
			<input>
				<port id="0">
					<dim>1</dim>
					<dim>64</dim>
					<dim>64</dim>
					<dim>64</dim>
				</port>
				<port id="1"/>
				<port id="2"/>
				<port id="3"/>
				<port id="4"/>
			</input>
			<output>
				<port id="5" precision="FP16">
					<dim>1</dim>
					<dim>64</dim>
					<dim>64</dim>
					<dim>64</dim>
				</port>
			</output>
		</layer>
		<layer id="521" name="417/mean/Fused_Mul__copy4957155/quantized992415470" type="Const" version="opset1">
			<data element_type="i8" offset="18606" shape="128,64,1,1" size="8192"/>
			<output>
				<port id="0" precision="I8">
					<dim>128</dim>
					<dim>64</dim>
					<dim>1</dim>
					<dim>1</dim>
				</port>
			</output>
		</layer>
		<layer id="522" name="417/mean/Fused_Mul__copy4957155/quantized/to_f16" type="Convert" version="opset1">
			<data destination_type="f16"/>
			<input>
				<port id="0">
					<dim>128</dim>
					<dim>64</dim>
					<dim>1</dim>
					<dim>1</dim>
				</port>
			</input>
			<output>
				<port id="1" precision="FP16">
					<dim>128</dim>
					<dim>64</dim>
					<dim>1</dim>
					<dim>1</dim>
				</port>
			</output>
		</layer>
		<layer id="523" name="416/fq_weights_1/zero_point993715698" type="Const" version="opset1">
			<data element_type="f16" offset="26798" shape="128,1,1,1" size="256"/>
			<output>
				<port id="0" precision="FP16">
					<dim>128</dim>
					<dim>1</dim>
					<dim>1</dim>
					<dim>1</dim>
				</port>
			</output>
		</layer>
		<layer id="524" name="416/fq_weights_1/minus_zp" type="Subtract" version="opset1">
			<data auto_broadcast="numpy"/>
			<input>
				<port id="0">
					<dim>128</dim>
					<dim>64</dim>
					<dim>1</dim>
					<dim>1</dim>
				</port>
				<port id="1">
					<dim>128</dim>
					<dim>1</dim>
					<dim>1</dim>
					<dim>1</dim>
				</port>
			</input>
			<output>
				<port id="2" precision="FP16">
					<dim>128</dim>
					<dim>64</dim>
					<dim>1</dim>
					<dim>1</dim>
				</port>
			</output>
		</layer>
		<layer id="525" name="416/fq_weights_1/scale993215572" type="Const" version="opset1">
			<data element_type="f16" offset="27054" shape="128,1,1,1" size="256"/>
			<output>
				<port id="0" precision="FP16">
					<dim>128</dim>
					<dim>1</dim>
					<dim>1</dim>
					<dim>1</dim>
				</port>
			</output>
		</layer>
		<layer id="526" name="416/fq_weights_1/mulpiply_by_scale" type="Multiply" version="opset1">
			<data auto_broadcast="numpy"/>
			<input>
				<port id="0">
					<dim>128</dim>
					<dim>64</dim>
					<dim>1</dim>
					<dim>1</dim>
				</port>
				<port id="1">
					<dim>128</dim>
					<dim>1</dim>
					<dim>1</dim>
					<dim>1</dim>
				</port>
			</input>
			<output>
				<port id="2" precision="FP16">
					<dim>128</dim>
					<dim>64</dim>
					<dim>1</dim>
					<dim>1</dim>
				</port>
			</output>
		</layer>
		<layer id="527" name="416" type="Convolution" version="opset1">
			<data auto_pad="explicit" dilations="1,1" pads_begin="0,0" pads_end="0,0" strides="1,1"/>
			<input>
				<port id="0">
					<dim>1</dim>
					<dim>64</dim>
					<dim>64</dim>
					<dim>64</dim>
				</port>
				<port id="1">
					<dim>128</dim>
					<dim>64</dim>
					<dim>1</dim>
					<dim>1</dim>
				</port>
			</input>
			<output>
				<port id="2" precision="FP16">
					<dim>1</dim>
					<dim>128</dim>
					<dim>64</dim>
					<dim>64</dim>
				</port>
			</output>
		</layer>
		<layer id="528" name="data_add_116371164249716289" type="Const" version="opset1">
			<data element_type="f16" offset="27310" shape="1,128,1,1" size="256"/>
			<output>
				<port id="0" precision="FP16">
					<dim>1</dim>
					<dim>128</dim>
					<dim>1</dim>
					<dim>1</dim>
				</port>
			</output>
		</layer>
		<layer id="529" name="417/variance/Fused_Add_" type="Add" version="opset1">
			<data auto_broadcast="numpy"/>
			<input>
				<port id="0">
					<dim>1</dim>
					<dim>128</dim>
					<dim>64</dim>
					<dim>64</dim>
				</port>
				<port id="1">
					<dim>1</dim>
					<dim>128</dim>
					<dim>1</dim>
					<dim>1</dim>
				</port>
			</input>
			<output>
				<port id="2" names="417" precision="FP16">
					<dim>1</dim>
					<dim>128</dim>
					<dim>64</dim>
					<dim>64</dim>
				</port>
			</output>
		</layer>
		<layer id="530" name="26499" type="Const" version="opset1">
			<data element_type="f32" offset="27566" shape="1" size="4"/>
			<output>
				<port id="0" names="26" precision="FP32">
					<dim>1</dim>
				</port>
			</output>
		</layer>
		<layer id="531" name="418" type="PReLU" version="opset1">
			<input>
				<port id="0">
					<dim>1</dim>
					<dim>128</dim>
					<dim>64</dim>
					<dim>64</dim>
				</port>
				<port id="1">
					<dim>1</dim>
				</port>
			</input>
			<output>
				<port id="2" names="418" precision="FP16">
					<dim>1</dim>
					<dim>128</dim>
					<dim>64</dim>
					<dim>64</dim>
				</port>
			</output>
		</layer>
		<layer id="532" name="419/fq_input_0" type="FakeQuantize" version="opset1">
			<data auto_broadcast="numpy" levels="256"/>
			<input>
				<port id="0">
					<dim>1</dim>
					<dim>128</dim>
					<dim>64</dim>
					<dim>64</dim>
				</port>
				<port id="1">
					<dim>1</dim>
					<dim>128</dim>
					<dim>1</dim>
					<dim>1</dim>
				</port>
				<port id="2">
					<dim>1</dim>
					<dim>128</dim>
					<dim>1</dim>
					<dim>1</dim>
				</port>
				<port id="3">
					<dim>1</dim>
					<dim>128</dim>
					<dim>1</dim>
					<dim>1</dim>
				</port>
				<port id="4">
					<dim>1</dim>
					<dim>128</dim>
					<dim>1</dim>
					<dim>1</dim>
				</port>
			</input>
			<output>
				<port id="5" precision="FP16">
					<dim>1</dim>
					<dim>128</dim>
					<dim>64</dim>
					<dim>64</dim>
				</port>
			</output>
		</layer>
		<layer id="533" name="11897/value1189914603" type="Const" version="opset1">
			<data element_type="i64" offset="27570" shape="5" size="40"/>
			<output>
				<port id="0" precision="I64">
					<dim>5</dim>
				</port>
			</output>
		</layer>
		<layer id="534" name="420/mean/Fused_Mul__copy5017158/quantized870015386" type="Const" version="opset1">
			<data element_type="i8" offset="27610" shape="128,1,3,3" size="1152"/>
			<output>
				<port id="0" precision="I8">
					<dim>128</dim>
					<dim>1</dim>
					<dim>3</dim>
					<dim>3</dim>
				</port>
			</output>
		</layer>
		<layer id="535" name="420/mean/Fused_Mul__copy5017158/quantized/to_f16" type="Convert" version="opset1">
			<data destination_type="f16"/>
			<input>
				<port id="0">
					<dim>128</dim>
					<dim>1</dim>
					<dim>3</dim>
					<dim>3</dim>
				</port>
			</input>
			<output>
				<port id="1" precision="FP16">
					<dim>128</dim>
					<dim>1</dim>
					<dim>3</dim>
					<dim>3</dim>
				</port>
			</output>
		</layer>
		<layer id="536" name="419/fq_weights_1/zero_point871315413" type="Const" version="opset1">
			<data element_type="f16" offset="28762" shape="128,1,1,1" size="256"/>
			<output>
				<port id="0" precision="FP16">
					<dim>128</dim>
					<dim>1</dim>
					<dim>1</dim>
					<dim>1</dim>
				</port>
			</output>
		</layer>
		<layer id="537" name="419/fq_weights_1/minus_zp" type="Subtract" version="opset1">
			<data auto_broadcast="numpy"/>
			<input>
				<port id="0">
					<dim>128</dim>
					<dim>1</dim>
					<dim>3</dim>
					<dim>3</dim>
				</port>
				<port id="1">
					<dim>128</dim>
					<dim>1</dim>
					<dim>1</dim>
					<dim>1</dim>
				</port>
			</input>
			<output>
				<port id="2" precision="FP16">
					<dim>128</dim>
					<dim>1</dim>
					<dim>3</dim>
					<dim>3</dim>
				</port>
			</output>
		</layer>
		<layer id="538" name="419/fq_weights_1/scale870814396" type="Const" version="opset1">
			<data element_type="f16" offset="29018" shape="128,1,1,1" size="256"/>
			<output>
				<port id="0" precision="FP16">
					<dim>128</dim>
					<dim>1</dim>
					<dim>1</dim>
					<dim>1</dim>
				</port>
			</output>
		</layer>
		<layer id="539" name="419/fq_weights_1/mulpiply_by_scale" type="Multiply" version="opset1">
			<data auto_broadcast="numpy"/>
			<input>
				<port id="0">
					<dim>128</dim>
					<dim>1</dim>
					<dim>3</dim>
					<dim>3</dim>
				</port>
				<port id="1">
					<dim>128</dim>
					<dim>1</dim>
					<dim>1</dim>
					<dim>1</dim>
				</port>
			</input>
			<output>
				<port id="2" precision="FP16">
					<dim>128</dim>
					<dim>1</dim>
					<dim>3</dim>
					<dim>3</dim>
				</port>
			</output>
		</layer>
		<layer id="540" name="11897" type="Reshape" version="opset1">
			<data special_zero="true"/>
			<input>
				<port id="0">
					<dim>128</dim>
					<dim>1</dim>
					<dim>3</dim>
					<dim>3</dim>
				</port>
				<port id="1">
					<dim>5</dim>
				</port>
			</input>
			<output>
				<port id="2" precision="FP16">
					<dim>128</dim>
					<dim>1</dim>
					<dim>1</dim>
					<dim>3</dim>
					<dim>3</dim>
				</port>
			</output>
		</layer>
		<layer id="541" name="419" type="GroupConvolution" version="opset1">
			<data auto_pad="explicit" dilations="1,1" pads_begin="1,1" pads_end="1,1" strides="2,2"/>
			<input>
				<port id="0">
					<dim>1</dim>
					<dim>128</dim>
					<dim>64</dim>
					<dim>64</dim>
				</port>
				<port id="1">
					<dim>128</dim>
					<dim>1</dim>
					<dim>1</dim>
					<dim>3</dim>
					<dim>3</dim>
				</port>
			</input>
			<output>
				<port id="2" precision="FP16">
					<dim>1</dim>
					<dim>128</dim>
					<dim>32</dim>
					<dim>32</dim>
				</port>
			</output>
		</layer>
		<layer id="542" name="data_add_116451165050315794" type="Const" version="opset1">
			<data element_type="f16" offset="29274" shape="1,128,1,1" size="256"/>
			<output>
				<port id="0" precision="FP16">
					<dim>1</dim>
					<dim>128</dim>
					<dim>1</dim>
					<dim>1</dim>
				</port>
			</output>
		</layer>
		<layer id="543" name="420/variance/Fused_Add_" type="Add" version="opset1">
			<data auto_broadcast="numpy"/>
			<input>
				<port id="0">
					<dim>1</dim>
					<dim>128</dim>
					<dim>32</dim>
					<dim>32</dim>
				</port>
				<port id="1">
					<dim>1</dim>
					<dim>128</dim>
					<dim>1</dim>
					<dim>1</dim>
				</port>
			</input>
			<output>
				<port id="2" names="420" precision="FP16">
					<dim>1</dim>
					<dim>128</dim>
					<dim>32</dim>
					<dim>32</dim>
				</port>
			</output>
		</layer>
		<layer id="544" name="33505" type="Const" version="opset1">
			<data element_type="f32" offset="29530" shape="1" size="4"/>
			<output>
				<port id="0" names="33" precision="FP32">
					<dim>1</dim>
				</port>
			</output>
		</layer>
		<layer id="545" name="421" type="PReLU" version="opset1">
			<input>
				<port id="0">
					<dim>1</dim>
					<dim>128</dim>
					<dim>32</dim>
					<dim>32</dim>
				</port>
				<port id="1">
					<dim>1</dim>
				</port>
			</input>
			<output>
				<port id="2" names="421" precision="FP16">
					<dim>1</dim>
					<dim>128</dim>
					<dim>32</dim>
					<dim>32</dim>
				</port>
			</output>
		</layer>
		<layer id="546" name="422/fq_input_0" type="FakeQuantize" version="opset1">
			<data auto_broadcast="numpy" levels="256"/>
			<input>
				<port id="0">
					<dim>1</dim>
					<dim>128</dim>
					<dim>32</dim>
					<dim>32</dim>
				</port>
				<port id="1"/>
				<port id="2"/>
				<port id="3"/>
				<port id="4"/>
			</input>
			<output>
				<port id="5" precision="FP16">
					<dim>1</dim>
					<dim>128</dim>
					<dim>32</dim>
					<dim>32</dim>
				</port>
			</output>
		</layer>
		<layer id="547" name="423/mean/Fused_Mul__copy5077161/quantized949215047" type="Const" version="opset1">
			<data element_type="i8" offset="29534" shape="64,128,1,1" size="8192"/>
			<output>
				<port id="0" precision="I8">
					<dim>64</dim>
					<dim>128</dim>
					<dim>1</dim>
					<dim>1</dim>
				</port>
			</output>
		</layer>
		<layer id="548" name="423/mean/Fused_Mul__copy5077161/quantized/to_f16" type="Convert" version="opset1">
			<data destination_type="f16"/>
			<input>
				<port id="0">
					<dim>64</dim>
					<dim>128</dim>
					<dim>1</dim>
					<dim>1</dim>
				</port>
			</input>
			<output>
				<port id="1" precision="FP16">
					<dim>64</dim>
					<dim>128</dim>
					<dim>1</dim>
					<dim>1</dim>
				</port>
			</output>
		</layer>
		<layer id="549" name="422/fq_weights_1/zero_point950516205" type="Const" version="opset1">
			<data element_type="f16" offset="37726" shape="64,1,1,1" size="128"/>
			<output>
				<port id="0" precision="FP16">
					<dim>64</dim>
					<dim>1</dim>
					<dim>1</dim>
					<dim>1</dim>
				</port>
			</output>
		</layer>
		<layer id="550" name="422/fq_weights_1/minus_zp" type="Subtract" version="opset1">
			<data auto_broadcast="numpy"/>
			<input>
				<port id="0">
					<dim>64</dim>
					<dim>128</dim>
					<dim>1</dim>
					<dim>1</dim>
				</port>
				<port id="1">
					<dim>64</dim>
					<dim>1</dim>
					<dim>1</dim>
					<dim>1</dim>
				</port>
			</input>
			<output>
				<port id="2" precision="FP16">
					<dim>64</dim>
					<dim>128</dim>
					<dim>1</dim>
					<dim>1</dim>
				</port>
			</output>
		</layer>
		<layer id="551" name="422/fq_weights_1/scale950015902" type="Const" version="opset1">
			<data element_type="f16" offset="37854" shape="64,1,1,1" size="128"/>
			<output>
				<port id="0" precision="FP16">
					<dim>64</dim>
					<dim>1</dim>
					<dim>1</dim>
					<dim>1</dim>
				</port>
			</output>
		</layer>
		<layer id="552" name="422/fq_weights_1/mulpiply_by_scale" type="Multiply" version="opset1">
			<data auto_broadcast="numpy"/>
			<input>
				<port id="0">
					<dim>64</dim>
					<dim>128</dim>
					<dim>1</dim>
					<dim>1</dim>
				</port>
				<port id="1">
					<dim>64</dim>
					<dim>1</dim>
					<dim>1</dim>
					<dim>1</dim>
				</port>
			</input>
			<output>
				<port id="2" precision="FP16">
					<dim>64</dim>
					<dim>128</dim>
					<dim>1</dim>
					<dim>1</dim>
				</port>
			</output>
		</layer>
		<layer id="553" name="422" type="Convolution" version="opset1">
			<data auto_pad="explicit" dilations="1,1" pads_begin="0,0" pads_end="0,0" strides="1,1"/>
			<input>
				<port id="0">
					<dim>1</dim>
					<dim>128</dim>
					<dim>32</dim>
					<dim>32</dim>
				</port>
				<port id="1">
					<dim>64</dim>
					<dim>128</dim>
					<dim>1</dim>
					<dim>1</dim>
				</port>
			</input>
			<output>
				<port id="2" precision="FP16">
					<dim>1</dim>
					<dim>64</dim>
					<dim>32</dim>
					<dim>32</dim>
				</port>
			</output>
		</layer>
		<layer id="554" name="data_add_116531165850914519" type="Const" version="opset1">
			<data element_type="f16" offset="37982" shape="1,64,1,1" size="128"/>
			<output>
				<port id="0" precision="FP16">
					<dim>1</dim>
					<dim>64</dim>
					<dim>1</dim>
					<dim>1</dim>
				</port>
			</output>
		</layer>
		<layer id="555" name="423/variance/Fused_Add_" type="Add" version="opset1">
			<data auto_broadcast="numpy"/>
			<input>
				<port id="0">
					<dim>1</dim>
					<dim>64</dim>
					<dim>32</dim>
					<dim>32</dim>
				</port>
				<port id="1">
					<dim>1</dim>
					<dim>64</dim>
					<dim>1</dim>
					<dim>1</dim>
				</port>
			</input>
			<output>
				<port id="2" names="423,424" precision="FP16">
					<dim>1</dim>
					<dim>64</dim>
					<dim>32</dim>
					<dim>32</dim>
				</port>
			</output>
		</layer>
		<layer id="556" name="425/fq_input_0" type="FakeQuantize" version="opset1">
			<data auto_broadcast="numpy" levels="256"/>
			<input>
				<port id="0">
					<dim>1</dim>
					<dim>64</dim>
					<dim>32</dim>
					<dim>32</dim>
				</port>
				<port id="1"/>
				<port id="2"/>
				<port id="3"/>
				<port id="4"/>
			</input>
			<output>
				<port id="5" precision="FP16">
					<dim>1</dim>
					<dim>64</dim>
					<dim>32</dim>
					<dim>32</dim>
				</port>
			</output>
		</layer>
		<layer id="557" name="425" type="AvgPool" version="opset1">
			<data auto_pad="explicit" exclude-pad="true" kernel="32,32" pads_begin="0,0" pads_end="0,0" rounding_type="floor" strides="32,32"/>
			<input>
				<port id="0">
					<dim>1</dim>
					<dim>64</dim>
					<dim>32</dim>
					<dim>32</dim>
				</port>
			</input>
			<output>
				<port id="1" names="425" precision="FP16">
					<dim>1</dim>
					<dim>64</dim>
					<dim>1</dim>
					<dim>1</dim>
				</port>
			</output>
		</layer>
		<layer id="558" name="426/WithoutBiases/fq_input_0" type="FakeQuantize" version="opset1">
			<data auto_broadcast="numpy" levels="256"/>
			<input>
				<port id="0">
					<dim>1</dim>
					<dim>64</dim>
					<dim>1</dim>
					<dim>1</dim>
				</port>
				<port id="1"/>
				<port id="2"/>
				<port id="3"/>
				<port id="4"/>
			</input>
			<output>
				<port id="5" precision="FP16">
					<dim>1</dim>
					<dim>64</dim>
					<dim>1</dim>
					<dim>1</dim>
				</port>
			</output>
		</layer>
		<layer id="559" name="405127163/quantized913215848" type="Const" version="opset1">
			<data element_type="i8" offset="38110" shape="8,64,1,1" size="512"/>
			<output>
				<port id="0" precision="I8">
					<dim>8</dim>
					<dim>64</dim>
					<dim>1</dim>
					<dim>1</dim>
				</port>
			</output>
		</layer>
		<layer id="560" name="405127163/quantized/to_f16" type="Convert" version="opset1">
			<data destination_type="f16"/>
			<input>
				<port id="0">
					<dim>8</dim>
					<dim>64</dim>
					<dim>1</dim>
					<dim>1</dim>
				</port>
			</input>
			<output>
				<port id="1" precision="FP16">
					<dim>8</dim>
					<dim>64</dim>
					<dim>1</dim>
					<dim>1</dim>
				</port>
			</output>
		</layer>
		<layer id="561" name="426/WithoutBiases/fq_weights_1/zero_point914513880" type="Const" version="opset1">
			<data element_type="f16" offset="38622" shape="8,1,1,1" size="16"/>
			<output>
				<port id="0" precision="FP16">
					<dim>8</dim>
					<dim>1</dim>
					<dim>1</dim>
					<dim>1</dim>
				</port>
			</output>
		</layer>
		<layer id="562" name="426/WithoutBiases/fq_weights_1/minus_zp" type="Subtract" version="opset1">
			<data auto_broadcast="numpy"/>
			<input>
				<port id="0">
					<dim>8</dim>
					<dim>64</dim>
					<dim>1</dim>
					<dim>1</dim>
				</port>
				<port id="1">
					<dim>8</dim>
					<dim>1</dim>
					<dim>1</dim>
					<dim>1</dim>
				</port>
			</input>
			<output>
				<port id="2" precision="FP16">
					<dim>8</dim>
					<dim>64</dim>
					<dim>1</dim>
					<dim>1</dim>
				</port>
			</output>
		</layer>
		<layer id="563" name="426/WithoutBiases/fq_weights_1/scale914015677" type="Const" version="opset1">
			<data element_type="f16" offset="38638" shape="8,1,1,1" size="16"/>
			<output>
				<port id="0" precision="FP16">
					<dim>8</dim>
					<dim>1</dim>
					<dim>1</dim>
					<dim>1</dim>
				</port>
			</output>
		</layer>
		<layer id="564" name="426/WithoutBiases/fq_weights_1/mulpiply_by_scale" type="Multiply" version="opset1">
			<data auto_broadcast="numpy"/>
			<input>
				<port id="0">
					<dim>8</dim>
					<dim>64</dim>
					<dim>1</dim>
					<dim>1</dim>
				</port>
				<port id="1">
					<dim>8</dim>
					<dim>1</dim>
					<dim>1</dim>
					<dim>1</dim>
				</port>
			</input>
			<output>
				<port id="2" precision="FP16">
					<dim>8</dim>
					<dim>64</dim>
					<dim>1</dim>
					<dim>1</dim>
				</port>
			</output>
		</layer>
		<layer id="565" name="426/WithoutBiases" type="Convolution" version="opset1">
			<data auto_pad="explicit" dilations="1,1" pads_begin="0,0" pads_end="0,0" strides="1,1"/>
			<input>
				<port id="0">
					<dim>1</dim>
					<dim>64</dim>
					<dim>1</dim>
					<dim>1</dim>
				</port>
				<port id="1">
					<dim>8</dim>
					<dim>64</dim>
					<dim>1</dim>
					<dim>1</dim>
				</port>
			</input>
			<output>
				<port id="2" precision="FP16">
					<dim>1</dim>
					<dim>8</dim>
					<dim>1</dim>
					<dim>1</dim>
				</port>
			</output>
		</layer>
		<layer id="566" name="426/Dims693051414891" type="Const" version="opset1">
			<data element_type="f16" offset="38654" shape="1,8,1,1" size="16"/>
			<output>
				<port id="0" precision="FP16">
					<dim>1</dim>
					<dim>8</dim>
					<dim>1</dim>
					<dim>1</dim>
				</port>
			</output>
		</layer>
		<layer id="567" name="426" type="Add" version="opset1">
			<data auto_broadcast="numpy"/>
			<input>
				<port id="0">
					<dim>1</dim>
					<dim>8</dim>
					<dim>1</dim>
					<dim>1</dim>
				</port>
				<port id="1">
					<dim>1</dim>
					<dim>8</dim>
					<dim>1</dim>
					<dim>1</dim>
				</port>
			</input>
			<output>
				<port id="2" names="426" precision="FP16">
					<dim>1</dim>
					<dim>8</dim>
					<dim>1</dim>
					<dim>1</dim>
				</port>
			</output>
		</layer>
		<layer id="568" name="44516" type="Const" version="opset1">
			<data element_type="f32" offset="38670" shape="1" size="4"/>
			<output>
				<port id="0" names="44" precision="FP32">
					<dim>1</dim>
				</port>
			</output>
		</layer>
		<layer id="569" name="427" type="PReLU" version="opset1">
			<input>
				<port id="0">
					<dim>1</dim>
					<dim>8</dim>
					<dim>1</dim>
					<dim>1</dim>
				</port>
				<port id="1">
					<dim>1</dim>
				</port>
			</input>
			<output>
				<port id="2" names="427" precision="FP16">
					<dim>1</dim>
					<dim>8</dim>
					<dim>1</dim>
					<dim>1</dim>
				</port>
			</output>
		</layer>
		<layer id="570" name="428/WithoutBiases/fq_input_0" type="FakeQuantize" version="opset1">
			<data auto_broadcast="numpy" levels="256"/>
			<input>
				<port id="0">
					<dim>1</dim>
					<dim>8</dim>
					<dim>1</dim>
					<dim>1</dim>
				</port>
				<port id="1"/>
				<port id="2"/>
				<port id="3"/>
				<port id="4"/>
			</input>
			<output>
				<port id="5" precision="FP16">
					<dim>1</dim>
					<dim>8</dim>
					<dim>1</dim>
					<dim>1</dim>
				</port>
			</output>
		</layer>
		<layer id="571" name="425187166/quantized867614288" type="Const" version="opset1">
			<data element_type="i8" offset="38674" shape="64,8,1,1" size="512"/>
			<output>
				<port id="0" precision="I8">
					<dim>64</dim>
					<dim>8</dim>
					<dim>1</dim>
					<dim>1</dim>
				</port>
			</output>
		</layer>
		<layer id="572" name="425187166/quantized/to_f16" type="Convert" version="opset1">
			<data destination_type="f16"/>
			<input>
				<port id="0">
					<dim>64</dim>
					<dim>8</dim>
					<dim>1</dim>
					<dim>1</dim>
				</port>
			</input>
			<output>
				<port id="1" precision="FP16">
					<dim>64</dim>
					<dim>8</dim>
					<dim>1</dim>
					<dim>1</dim>
				</port>
			</output>
		</layer>
		<layer id="573" name="428/WithoutBiases/fq_weights_1/zero_point868916037" type="Const" version="opset1">
			<data element_type="f16" offset="39186" shape="64,1,1,1" size="128"/>
			<output>
				<port id="0" precision="FP16">
					<dim>64</dim>
					<dim>1</dim>
					<dim>1</dim>
					<dim>1</dim>
				</port>
			</output>
		</layer>
		<layer id="574" name="428/WithoutBiases/fq_weights_1/minus_zp" type="Subtract" version="opset1">
			<data auto_broadcast="numpy"/>
			<input>
				<port id="0">
					<dim>64</dim>
					<dim>8</dim>
					<dim>1</dim>
					<dim>1</dim>
				</port>
				<port id="1">
					<dim>64</dim>
					<dim>1</dim>
					<dim>1</dim>
					<dim>1</dim>
				</port>
			</input>
			<output>
				<port id="2" precision="FP16">
					<dim>64</dim>
					<dim>8</dim>
					<dim>1</dim>
					<dim>1</dim>
				</port>
			</output>
		</layer>
		<layer id="575" name="428/WithoutBiases/fq_weights_1/scale868415659" type="Const" version="opset1">
			<data element_type="f16" offset="39314" shape="64,1,1,1" size="128"/>
			<output>
				<port id="0" precision="FP16">
					<dim>64</dim>
					<dim>1</dim>
					<dim>1</dim>
					<dim>1</dim>
				</port>
			</output>
		</layer>
		<layer id="576" name="428/WithoutBiases/fq_weights_1/mulpiply_by_scale" type="Multiply" version="opset1">
			<data auto_broadcast="numpy"/>
			<input>
				<port id="0">
					<dim>64</dim>
					<dim>8</dim>
					<dim>1</dim>
					<dim>1</dim>
				</port>
				<port id="1">
					<dim>64</dim>
					<dim>1</dim>
					<dim>1</dim>
					<dim>1</dim>
				</port>
			</input>
			<output>
				<port id="2" precision="FP16">
					<dim>64</dim>
					<dim>8</dim>
					<dim>1</dim>
					<dim>1</dim>
				</port>
			</output>
		</layer>
		<layer id="577" name="428/WithoutBiases" type="Convolution" version="opset1">
			<data auto_pad="explicit" dilations="1,1" pads_begin="0,0" pads_end="0,0" strides="1,1"/>
			<input>
				<port id="0">
					<dim>1</dim>
					<dim>8</dim>
					<dim>1</dim>
					<dim>1</dim>
				</port>
				<port id="1">
					<dim>64</dim>
					<dim>8</dim>
					<dim>1</dim>
					<dim>1</dim>
				</port>
			</input>
			<output>
				<port id="2" precision="FP16">
					<dim>1</dim>
					<dim>64</dim>
					<dim>1</dim>
					<dim>1</dim>
				</port>
			</output>
		</layer>
		<layer id="578" name="428/Dims693652014546" type="Const" version="opset1">
			<data element_type="f16" offset="39442" shape="1,64,1,1" size="128"/>
			<output>
				<port id="0" precision="FP16">
					<dim>1</dim>
					<dim>64</dim>
					<dim>1</dim>
					<dim>1</dim>
				</port>
			</output>
		</layer>
		<layer id="579" name="428" type="Add" version="opset1">
			<data auto_broadcast="numpy"/>
			<input>
				<port id="0">
					<dim>1</dim>
					<dim>64</dim>
					<dim>1</dim>
					<dim>1</dim>
				</port>
				<port id="1">
					<dim>1</dim>
					<dim>64</dim>
					<dim>1</dim>
					<dim>1</dim>
				</port>
			</input>
			<output>
				<port id="2" names="428" precision="FP16">
					<dim>1</dim>
					<dim>64</dim>
					<dim>1</dim>
					<dim>1</dim>
				</port>
			</output>
		</layer>
		<layer id="580" name="429" type="Sigmoid" version="opset1">
			<input>
				<port id="0">
					<dim>1</dim>
					<dim>64</dim>
					<dim>1</dim>
					<dim>1</dim>
				</port>
			</input>
			<output>
				<port id="1" names="429" precision="FP16">
					<dim>1</dim>
					<dim>64</dim>
					<dim>1</dim>
					<dim>1</dim>
				</port>
			</output>
		</layer>
		<layer id="581" name="430/fq_input_1" type="FakeQuantize" version="opset1">
			<data auto_broadcast="numpy" levels="256"/>
			<input>
				<port id="0">
					<dim>1</dim>
					<dim>64</dim>
					<dim>1</dim>
					<dim>1</dim>
				</port>
				<port id="1"/>
				<port id="2"/>
				<port id="3"/>
				<port id="4"/>
			</input>
			<output>
				<port id="5" precision="FP16">
					<dim>1</dim>
					<dim>64</dim>
					<dim>1</dim>
					<dim>1</dim>
				</port>
			</output>
		</layer>
		<layer id="582" name="430" type="Multiply" version="opset1">
			<data auto_broadcast="numpy"/>
			<input>
				<port id="0">
					<dim>1</dim>
					<dim>64</dim>
					<dim>32</dim>
					<dim>32</dim>
				</port>
				<port id="1">
					<dim>1</dim>
					<dim>64</dim>
					<dim>1</dim>
					<dim>1</dim>
				</port>
			</input>
			<output>
				<port id="2" names="430" precision="FP16">
					<dim>1</dim>
					<dim>64</dim>
					<dim>32</dim>
					<dim>32</dim>
				</port>
			</output>
		</layer>
		<layer id="583" name="431/fq_input_0" type="FakeQuantize" version="opset1">
			<data auto_broadcast="numpy" levels="256"/>
			<input>
				<port id="0">
					<dim>1</dim>
					<dim>64</dim>
					<dim>32</dim>
					<dim>32</dim>
				</port>
				<port id="1"/>
				<port id="2"/>
				<port id="3"/>
				<port id="4"/>
			</input>
			<output>
				<port id="5" precision="FP16">
					<dim>1</dim>
					<dim>64</dim>
					<dim>32</dim>
					<dim>32</dim>
				</port>
			</output>
		</layer>
		<layer id="584" name="432/mean/Fused_Mul__copy5247168/quantized908414408" type="Const" version="opset1">
			<data element_type="i8" offset="39570" shape="128,64,1,1" size="8192"/>
			<output>
				<port id="0" precision="I8">
					<dim>128</dim>
					<dim>64</dim>
					<dim>1</dim>
					<dim>1</dim>
				</port>
			</output>
		</layer>
		<layer id="585" name="432/mean/Fused_Mul__copy5247168/quantized/to_f16" type="Convert" version="opset1">
			<data destination_type="f16"/>
			<input>
				<port id="0">
					<dim>128</dim>
					<dim>64</dim>
					<dim>1</dim>
					<dim>1</dim>
				</port>
			</input>
			<output>
				<port id="1" precision="FP16">
					<dim>128</dim>
					<dim>64</dim>
					<dim>1</dim>
					<dim>1</dim>
				</port>
			</output>
		</layer>
		<layer id="586" name="431/fq_weights_1/zero_point909716139" type="Const" version="opset1">
			<data element_type="f16" offset="47762" shape="128,1,1,1" size="256"/>
			<output>
				<port id="0" precision="FP16">
					<dim>128</dim>
					<dim>1</dim>
					<dim>1</dim>
					<dim>1</dim>
				</port>
			</output>
		</layer>
		<layer id="587" name="431/fq_weights_1/minus_zp" type="Subtract" version="opset1">
			<data auto_broadcast="numpy"/>
			<input>
				<port id="0">
					<dim>128</dim>
					<dim>64</dim>
					<dim>1</dim>
					<dim>1</dim>
				</port>
				<port id="1">
					<dim>128</dim>
					<dim>1</dim>
					<dim>1</dim>
					<dim>1</dim>
				</port>
			</input>
			<output>
				<port id="2" precision="FP16">
					<dim>128</dim>
					<dim>64</dim>
					<dim>1</dim>
					<dim>1</dim>
				</port>
			</output>
		</layer>
		<layer id="588" name="431/fq_weights_1/scale909214003" type="Const" version="opset1">
			<data element_type="f16" offset="48018" shape="128,1,1,1" size="256"/>
			<output>
				<port id="0" precision="FP16">
					<dim>128</dim>
					<dim>1</dim>
					<dim>1</dim>
					<dim>1</dim>
				</port>
			</output>
		</layer>
		<layer id="589" name="431/fq_weights_1/mulpiply_by_scale" type="Multiply" version="opset1">
			<data auto_broadcast="numpy"/>
			<input>
				<port id="0">
					<dim>128</dim>
					<dim>64</dim>
					<dim>1</dim>
					<dim>1</dim>
				</port>
				<port id="1">
					<dim>128</dim>
					<dim>1</dim>
					<dim>1</dim>
					<dim>1</dim>
				</port>
			</input>
			<output>
				<port id="2" precision="FP16">
					<dim>128</dim>
					<dim>64</dim>
					<dim>1</dim>
					<dim>1</dim>
				</port>
			</output>
		</layer>
		<layer id="590" name="431" type="Convolution" version="opset1">
			<data auto_pad="explicit" dilations="1,1" pads_begin="0,0" pads_end="0,0" strides="1,1"/>
			<input>
				<port id="0">
					<dim>1</dim>
					<dim>64</dim>
					<dim>32</dim>
					<dim>32</dim>
				</port>
				<port id="1">
					<dim>128</dim>
					<dim>64</dim>
					<dim>1</dim>
					<dim>1</dim>
				</port>
			</input>
			<output>
				<port id="2" precision="FP16">
					<dim>1</dim>
					<dim>128</dim>
					<dim>32</dim>
					<dim>32</dim>
				</port>
			</output>
		</layer>
		<layer id="591" name="data_add_116611166652615467" type="Const" version="opset1">
			<data element_type="f16" offset="48274" shape="1,128,1,1" size="256"/>
			<output>
				<port id="0" precision="FP16">
					<dim>1</dim>
					<dim>128</dim>
					<dim>1</dim>
					<dim>1</dim>
				</port>
			</output>
		</layer>
		<layer id="592" name="432/variance/Fused_Add_" type="Add" version="opset1">
			<data auto_broadcast="numpy"/>
			<input>
…
		<edge from-layer="1083" from-port="2" to-layer="1085" to-port="0"/>
		<edge from-layer="1084" from-port="0" to-layer="1085" to-port="1"/>
		<edge from-layer="1085" from-port="2" to-layer="1086" to-port="0"/>
		<edge from-layer="209" from-port="0" to-layer="1086" to-port="1"/>
		<edge from-layer="210" from-port="0" to-layer="1086" to-port="2"/>
		<edge from-layer="211" from-port="0" to-layer="1086" to-port="3"/>
		<edge from-layer="212" from-port="0" to-layer="1086" to-port="4"/>
		<edge from-layer="1087" from-port="0" to-layer="1088" to-port="0"/>
		<edge from-layer="1088" from-port="1" to-layer="1090" to-port="0"/>
		<edge from-layer="1089" from-port="0" to-layer="1090" to-port="1"/>
		<edge from-layer="1090" from-port="2" to-layer="1092" to-port="0"/>
		<edge from-layer="1091" from-port="0" to-layer="1092" to-port="1"/>
		<edge from-layer="1086" from-port="5" to-layer="1093" to-port="0"/>
		<edge from-layer="1092" from-port="2" to-layer="1093" to-port="1"/>
		<edge from-layer="1093" from-port="2" to-layer="1095" to-port="0"/>
		<edge from-layer="1094" from-port="0" to-layer="1095" to-port="1"/>
		<edge from-layer="1095" from-port="2" to-layer="1096" to-port="0"/>
		<edge from-layer="1096" from-port="1" to-layer="1097" to-port="0"/>
		<edge from-layer="205" from-port="0" to-layer="1097" to-port="1"/>
		<edge from-layer="206" from-port="0" to-layer="1097" to-port="2"/>
		<edge from-layer="207" from-port="0" to-layer="1097" to-port="3"/>
		<edge from-layer="208" from-port="0" to-layer="1097" to-port="4"/>
		<edge from-layer="1072" from-port="5" to-layer="1098" to-port="0"/>
		<edge from-layer="1097" from-port="5" to-layer="1098" to-port="1"/>
		<edge from-layer="1098" from-port="2" to-layer="1099" to-port="0"/>
		<edge from-layer="201" from-port="0" to-layer="1099" to-port="1"/>
		<edge from-layer="202" from-port="0" to-layer="1099" to-port="2"/>
		<edge from-layer="203" from-port="0" to-layer="1099" to-port="3"/>
		<edge from-layer="204" from-port="0" to-layer="1099" to-port="4"/>
		<edge from-layer="1036" from-port="5" to-layer="1100" to-port="0"/>
		<edge from-layer="1099" from-port="5" to-layer="1100" to-port="1"/>
		<edge from-layer="1100" from-port="2" to-layer="1101" to-port="0"/>
		<edge from-layer="197" from-port="0" to-layer="1101" to-port="1"/>
		<edge from-layer="198" from-port="0" to-layer="1101" to-port="2"/>
		<edge from-layer="199" from-port="0" to-layer="1101" to-port="3"/>
		<edge from-layer="200" from-port="0" to-layer="1101" to-port="4"/>
		<edge from-layer="1102" from-port="0" to-layer="1103" to-port="0"/>
		<edge from-layer="1103" from-port="1" to-layer="1105" to-port="0"/>
		<edge from-layer="1104" from-port="0" to-layer="1105" to-port="1"/>
		<edge from-layer="1105" from-port="2" to-layer="1107" to-port="0"/>
		<edge from-layer="1106" from-port="0" to-layer="1107" to-port="1"/>
		<edge from-layer="1101" from-port="5" to-layer="1108" to-port="0"/>
		<edge from-layer="1107" from-port="2" to-layer="1108" to-port="1"/>
		<edge from-layer="1108" from-port="2" to-layer="1110" to-port="0"/>
		<edge from-layer="1109" from-port="0" to-layer="1110" to-port="1"/>
		<edge from-layer="1110" from-port="2" to-layer="1112" to-port="0"/>
		<edge from-layer="1111" from-port="0" to-layer="1112" to-port="1"/>
		<edge from-layer="1112" from-port="2" to-layer="1113" to-port="0"/>
		<edge from-layer="193" from-port="0" to-layer="1113" to-port="1"/>
		<edge from-layer="194" from-port="0" to-layer="1113" to-port="2"/>
		<edge from-layer="195" from-port="0" to-layer="1113" to-port="3"/>
		<edge from-layer="196" from-port="0" to-layer="1113" to-port="4"/>
		<edge from-layer="1115" from-port="0" to-layer="1116" to-port="0"/>
		<edge from-layer="1116" from-port="1" to-layer="1118" to-port="0"/>
		<edge from-layer="1117" from-port="0" to-layer="1118" to-port="1"/>
		<edge from-layer="1118" from-port="2" to-layer="1120" to-port="0"/>
		<edge from-layer="1119" from-port="0" to-layer="1120" to-port="1"/>
		<edge from-layer="1120" from-port="2" to-layer="1121" to-port="0"/>
		<edge from-layer="1114" from-port="0" to-layer="1121" to-port="1"/>
		<edge from-layer="1113" from-port="5" to-layer="1122" to-port="0"/>
		<edge from-layer="1121" from-port="2" to-layer="1122" to-port="1"/>
		<edge from-layer="1122" from-port="2" to-layer="1124" to-port="0"/>
		<edge from-layer="1123" from-port="0" to-layer="1124" to-port="1"/>
		<edge from-layer="1124" from-port="2" to-layer="1126" to-port="0"/>
		<edge from-layer="1125" from-port="0" to-layer="1126" to-port="1"/>
		<edge from-layer="1126" from-port="2" to-layer="1127" to-port="0"/>
		<edge from-layer="189" from-port="0" to-layer="1127" to-port="1"/>
		<edge from-layer="190" from-port="0" to-layer="1127" to-port="2"/>
		<edge from-layer="191" from-port="0" to-layer="1127" to-port="3"/>
		<edge from-layer="192" from-port="0" to-layer="1127" to-port="4"/>
		<edge from-layer="1128" from-port="0" to-layer="1129" to-port="0"/>
		<edge from-layer="1129" from-port="1" to-layer="1131" to-port="0"/>
		<edge from-layer="1130" from-port="0" to-layer="1131" to-port="1"/>
		<edge from-layer="1131" from-port="2" to-layer="1133" to-port="0"/>
		<edge from-layer="1132" from-port="0" to-layer="1133" to-port="1"/>
		<edge from-layer="1127" from-port="5" to-layer="1134" to-port="0"/>
		<edge from-layer="1133" from-port="2" to-layer="1134" to-port="1"/>
		<edge from-layer="1134" from-port="2" to-layer="1136" to-port="0"/>
		<edge from-layer="1135" from-port="0" to-layer="1136" to-port="1"/>
		<edge from-layer="1136" from-port="2" to-layer="1137" to-port="0"/>
		<edge from-layer="185" from-port="0" to-layer="1137" to-port="1"/>
		<edge from-layer="186" from-port="0" to-layer="1137" to-port="2"/>
		<edge from-layer="187" from-port="0" to-layer="1137" to-port="3"/>
		<edge from-layer="188" from-port="0" to-layer="1137" to-port="4"/>
		<edge from-layer="1137" from-port="5" to-layer="1138" to-port="0"/>
		<edge from-layer="1138" from-port="1" to-layer="1139" to-port="0"/>
		<edge from-layer="181" from-port="0" to-layer="1139" to-port="1"/>
		<edge from-layer="182" from-port="0" to-layer="1139" to-port="2"/>
		<edge from-layer="183" from-port="0" to-layer="1139" to-port="3"/>
		<edge from-layer="184" from-port="0" to-layer="1139" to-port="4"/>
		<edge from-layer="1140" from-port="0" to-layer="1141" to-port="0"/>
		<edge from-layer="1141" from-port="1" to-layer="1143" to-port="0"/>
		<edge from-layer="1142" from-port="0" to-layer="1143" to-port="1"/>
		<edge from-layer="1143" from-port="2" to-layer="1145" to-port="0"/>
		<edge from-layer="1144" from-port="0" to-layer="1145" to-port="1"/>
		<edge from-layer="1139" from-port="5" to-layer="1146" to-port="0"/>
		<edge from-layer="1145" from-port="2" to-layer="1146" to-port="1"/>
		<edge from-layer="1146" from-port="2" to-layer="1148" to-port="0"/>
		<edge from-layer="1147" from-port="0" to-layer="1148" to-port="1"/>
		<edge from-layer="1148" from-port="2" to-layer="1150" to-port="0"/>
		<edge from-layer="1149" from-port="0" to-layer="1150" to-port="1"/>
		<edge from-layer="1150" from-port="2" to-layer="1151" to-port="0"/>
		<edge from-layer="177" from-port="0" to-layer="1151" to-port="1"/>
		<edge from-layer="178" from-port="0" to-layer="1151" to-port="2"/>
		<edge from-layer="179" from-port="0" to-layer="1151" to-port="3"/>
		<edge from-layer="180" from-port="0" to-layer="1151" to-port="4"/>
		<edge from-layer="1152" from-port="0" to-layer="1153" to-port="0"/>
		<edge from-layer="1153" from-port="1" to-layer="1155" to-port="0"/>
		<edge from-layer="1154" from-port="0" to-layer="1155" to-port="1"/>
		<edge from-layer="1155" from-port="2" to-layer="1157" to-port="0"/>
		<edge from-layer="1156" from-port="0" to-layer="1157" to-port="1"/>
		<edge from-layer="1151" from-port="5" to-layer="1158" to-port="0"/>
		<edge from-layer="1157" from-port="2" to-layer="1158" to-port="1"/>
		<edge from-layer="1158" from-port="2" to-layer="1160" to-port="0"/>
		<edge from-layer="1159" from-port="0" to-layer="1160" to-port="1"/>
		<edge from-layer="1160" from-port="2" to-layer="1161" to-port="0"/>
		<edge from-layer="1161" from-port="1" to-layer="1162" to-port="0"/>
		<edge from-layer="173" from-port="0" to-layer="1162" to-port="1"/>
		<edge from-layer="174" from-port="0" to-layer="1162" to-port="2"/>
		<edge from-layer="175" from-port="0" to-layer="1162" to-port="3"/>
		<edge from-layer="176" from-port="0" to-layer="1162" to-port="4"/>
		<edge from-layer="1137" from-port="5" to-layer="1163" to-port="0"/>
		<edge from-layer="1162" from-port="5" to-layer="1163" to-port="1"/>
		<edge from-layer="1163" from-port="2" to-layer="1164" to-port="0"/>
		<edge from-layer="169" from-port="0" to-layer="1164" to-port="1"/>
		<edge from-layer="170" from-port="0" to-layer="1164" to-port="2"/>
		<edge from-layer="171" from-port="0" to-layer="1164" to-port="3"/>
		<edge from-layer="172" from-port="0" to-layer="1164" to-port="4"/>
		<edge from-layer="1101" from-port="5" to-layer="1165" to-port="0"/>
		<edge from-layer="1164" from-port="5" to-layer="1165" to-port="1"/>
		<edge from-layer="1165" from-port="2" to-layer="1166" to-port="0"/>
		<edge from-layer="165" from-port="0" to-layer="1166" to-port="1"/>
		<edge from-layer="166" from-port="0" to-layer="1166" to-port="2"/>
		<edge from-layer="167" from-port="0" to-layer="1166" to-port="3"/>
		<edge from-layer="168" from-port="0" to-layer="1166" to-port="4"/>
		<edge from-layer="1167" from-port="0" to-layer="1168" to-port="0"/>
		<edge from-layer="1168" from-port="1" to-layer="1170" to-port="0"/>
		<edge from-layer="1169" from-port="0" to-layer="1170" to-port="1"/>
		<edge from-layer="1170" from-port="2" to-layer="1172" to-port="0"/>
		<edge from-layer="1171" from-port="0" to-layer="1172" to-port="1"/>
		<edge from-layer="1166" from-port="5" to-layer="1173" to-port="0"/>
		<edge from-layer="1172" from-port="2" to-layer="1173" to-port="1"/>
		<edge from-layer="1173" from-port="2" to-layer="1175" to-port="0"/>
		<edge from-layer="1174" from-port="0" to-layer="1175" to-port="1"/>
		<edge from-layer="1175" from-port="2" to-layer="1177" to-port="0"/>
		<edge from-layer="1176" from-port="0" to-layer="1177" to-port="1"/>
		<edge from-layer="1177" from-port="2" to-layer="1178" to-port="0"/>
		<edge from-layer="161" from-port="0" to-layer="1178" to-port="1"/>
		<edge from-layer="162" from-port="0" to-layer="1178" to-port="2"/>
		<edge from-layer="163" from-port="0" to-layer="1178" to-port="3"/>
		<edge from-layer="164" from-port="0" to-layer="1178" to-port="4"/>
		<edge from-layer="1180" from-port="0" to-layer="1181" to-port="0"/>
		<edge from-layer="1181" from-port="1" to-layer="1183" to-port="0"/>
		<edge from-layer="1182" from-port="0" to-layer="1183" to-port="1"/>
		<edge from-layer="1183" from-port="2" to-layer="1185" to-port="0"/>
		<edge from-layer="1184" from-port="0" to-layer="1185" to-port="1"/>
		<edge from-layer="1185" from-port="2" to-layer="1186" to-port="0"/>
		<edge from-layer="1179" from-port="0" to-layer="1186" to-port="1"/>
		<edge from-layer="1178" from-port="5" to-layer="1187" to-port="0"/>
		<edge from-layer="1186" from-port="2" to-layer="1187" to-port="1"/>
		<edge from-layer="1187" from-port="2" to-layer="1189" to-port="0"/>
		<edge from-layer="1188" from-port="0" to-layer="1189" to-port="1"/>
		<edge from-layer="1189" from-port="2" to-layer="1191" to-port="0"/>
		<edge from-layer="1190" from-port="0" to-layer="1191" to-port="1"/>
		<edge from-layer="1191" from-port="2" to-layer="1192" to-port="0"/>
		<edge from-layer="157" from-port="0" to-layer="1192" to-port="1"/>
		<edge from-layer="158" from-port="0" to-layer="1192" to-port="2"/>
		<edge from-layer="159" from-port="0" to-layer="1192" to-port="3"/>
		<edge from-layer="160" from-port="0" to-layer="1192" to-port="4"/>
		<edge from-layer="1193" from-port="0" to-layer="1194" to-port="0"/>
		<edge from-layer="1194" from-port="1" to-layer="1196" to-port="0"/>
		<edge from-layer="1195" from-port="0" to-layer="1196" to-port="1"/>
		<edge from-layer="1196" from-port="2" to-layer="1198" to-port="0"/>
		<edge from-layer="1197" from-port="0" to-layer="1198" to-port="1"/>
		<edge from-layer="1192" from-port="5" to-layer="1199" to-port="0"/>
		<edge from-layer="1198" from-port="2" to-layer="1199" to-port="1"/>
		<edge from-layer="1199" from-port="2" to-layer="1201" to-port="0"/>
		<edge from-layer="1200" from-port="0" to-layer="1201" to-port="1"/>
		<edge from-layer="1201" from-port="2" to-layer="1202" to-port="0"/>
		<edge from-layer="153" from-port="0" to-layer="1202" to-port="1"/>
		<edge from-layer="154" from-port="0" to-layer="1202" to-port="2"/>
		<edge from-layer="155" from-port="0" to-layer="1202" to-port="3"/>
		<edge from-layer="156" from-port="0" to-layer="1202" to-port="4"/>
		<edge from-layer="1202" from-port="5" to-layer="1203" to-port="0"/>
		<edge from-layer="1203" from-port="1" to-layer="1204" to-port="0"/>
		<edge from-layer="149" from-port="0" to-layer="1204" to-port="1"/>
		<edge from-layer="150" from-port="0" to-layer="1204" to-port="2"/>
		<edge from-layer="151" from-port="0" to-layer="1204" to-port="3"/>
		<edge from-layer="152" from-port="0" to-layer="1204" to-port="4"/>
		<edge from-layer="1205" from-port="0" to-layer="1206" to-port="0"/>
		<edge from-layer="1206" from-port="1" to-layer="1208" to-port="0"/>
		<edge from-layer="1207" from-port="0" to-layer="1208" to-port="1"/>
		<edge from-layer="1208" from-port="2" to-layer="1210" to-port="0"/>
		<edge from-layer="1209" from-port="0" to-layer="1210" to-port="1"/>
		<edge from-layer="1204" from-port="5" to-layer="1211" to-port="0"/>
		<edge from-layer="1210" from-port="2" to-layer="1211" to-port="1"/>
		<edge from-layer="1211" from-port="2" to-layer="1213" to-port="0"/>
		<edge from-layer="1212" from-port="0" to-layer="1213" to-port="1"/>
		<edge from-layer="1213" from-port="2" to-layer="1215" to-port="0"/>
		<edge from-layer="1214" from-port="0" to-layer="1215" to-port="1"/>
		<edge from-layer="1215" from-port="2" to-layer="1216" to-port="0"/>
		<edge from-layer="145" from-port="0" to-layer="1216" to-port="1"/>
		<edge from-layer="146" from-port="0" to-layer="1216" to-port="2"/>
		<edge from-layer="147" from-port="0" to-layer="1216" to-port="3"/>
		<edge from-layer="148" from-port="0" to-layer="1216" to-port="4"/>
		<edge from-layer="1217" from-port="0" to-layer="1218" to-port="0"/>
		<edge from-layer="1218" from-port="1" to-layer="1220" to-port="0"/>
		<edge from-layer="1219" from-port="0" to-layer="1220" to-port="1"/>
		<edge from-layer="1220" from-port="2" to-layer="1222" to-port="0"/>
		<edge from-layer="1221" from-port="0" to-layer="1222" to-port="1"/>
		<edge from-layer="1216" from-port="5" to-layer="1223" to-port="0"/>
		<edge from-layer="1222" from-port="2" to-layer="1223" to-port="1"/>
		<edge from-layer="1223" from-port="2" to-layer="1225" to-port="0"/>
		<edge from-layer="1224" from-port="0" to-layer="1225" to-port="1"/>
		<edge from-layer="1225" from-port="2" to-layer="1226" to-port="0"/>
		<edge from-layer="1226" from-port="1" to-layer="1227" to-port="0"/>
		<edge from-layer="141" from-port="0" to-layer="1227" to-port="1"/>
		<edge from-layer="142" from-port="0" to-layer="1227" to-port="2"/>
		<edge from-layer="143" from-port="0" to-layer="1227" to-port="3"/>
		<edge from-layer="144" from-port="0" to-layer="1227" to-port="4"/>
		<edge from-layer="1202" from-port="5" to-layer="1228" to-port="0"/>
		<edge from-layer="1227" from-port="5" to-layer="1228" to-port="1"/>
		<edge from-layer="1228" from-port="2" to-layer="1229" to-port="0"/>
		<edge from-layer="137" from-port="0" to-layer="1229" to-port="1"/>
		<edge from-layer="138" from-port="0" to-layer="1229" to-port="2"/>
		<edge from-layer="139" from-port="0" to-layer="1229" to-port="3"/>
		<edge from-layer="140" from-port="0" to-layer="1229" to-port="4"/>
		<edge from-layer="1166" from-port="5" to-layer="1230" to-port="0"/>
		<edge from-layer="1229" from-port="5" to-layer="1230" to-port="1"/>
		<edge from-layer="1230" from-port="2" to-layer="1231" to-port="0"/>
		<edge from-layer="133" from-port="0" to-layer="1231" to-port="1"/>
		<edge from-layer="134" from-port="0" to-layer="1231" to-port="2"/>
		<edge from-layer="135" from-port="0" to-layer="1231" to-port="3"/>
		<edge from-layer="136" from-port="0" to-layer="1231" to-port="4"/>
		<edge from-layer="1232" from-port="0" to-layer="1233" to-port="0"/>
		<edge from-layer="1233" from-port="1" to-layer="1235" to-port="0"/>
		<edge from-layer="1234" from-port="0" to-layer="1235" to-port="1"/>
		<edge from-layer="1235" from-port="2" to-layer="1237" to-port="0"/>
		<edge from-layer="1236" from-port="0" to-layer="1237" to-port="1"/>
		<edge from-layer="1231" from-port="5" to-layer="1238" to-port="0"/>
		<edge from-layer="1237" from-port="2" to-layer="1238" to-port="1"/>
		<edge from-layer="1238" from-port="2" to-layer="1240" to-port="0"/>
		<edge from-layer="1239" from-port="0" to-layer="1240" to-port="1"/>
		<edge from-layer="1240" from-port="2" to-layer="1242" to-port="0"/>
		<edge from-layer="1241" from-port="0" to-layer="1242" to-port="1"/>
		<edge from-layer="1242" from-port="2" to-layer="1243" to-port="0"/>
		<edge from-layer="129" from-port="0" to-layer="1243" to-port="1"/>
		<edge from-layer="130" from-port="0" to-layer="1243" to-port="2"/>
		<edge from-layer="131" from-port="0" to-layer="1243" to-port="3"/>
		<edge from-layer="132" from-port="0" to-layer="1243" to-port="4"/>
		<edge from-layer="1245" from-port="0" to-layer="1246" to-port="0"/>
		<edge from-layer="1246" from-port="1" to-layer="1248" to-port="0"/>
		<edge from-layer="1247" from-port="0" to-layer="1248" to-port="1"/>
		<edge from-layer="1248" from-port="2" to-layer="1250" to-port="0"/>
		<edge from-layer="1249" from-port="0" to-layer="1250" to-port="1"/>
		<edge from-layer="1250" from-port="2" to-layer="1251" to-port="0"/>
		<edge from-layer="1244" from-port="0" to-layer="1251" to-port="1"/>
		<edge from-layer="1243" from-port="5" to-layer="1252" to-port="0"/>
		<edge from-layer="1251" from-port="2" to-layer="1252" to-port="1"/>
		<edge from-layer="1252" from-port="2" to-layer="1254" to-port="0"/>
		<edge from-layer="1253" from-port="0" to-layer="1254" to-port="1"/>
		<edge from-layer="1254" from-port="2" to-layer="1256" to-port="0"/>
		<edge from-layer="1255" from-port="0" to-layer="1256" to-port="1"/>
		<edge from-layer="1256" from-port="2" to-layer="1257" to-port="0"/>
		<edge from-layer="125" from-port="0" to-layer="1257" to-port="1"/>
		<edge from-layer="126" from-port="0" to-layer="1257" to-port="2"/>
		<edge from-layer="127" from-port="0" to-layer="1257" to-port="3"/>
		<edge from-layer="128" from-port="0" to-layer="1257" to-port="4"/>
		<edge from-layer="1258" from-port="0" to-layer="1259" to-port="0"/>
		<edge from-layer="1259" from-port="1" to-layer="1261" to-port="0"/>
		<edge from-layer="1260" from-port="0" to-layer="1261" to-port="1"/>
		<edge from-layer="1261" from-port="2" to-layer="1263" to-port="0"/>
		<edge from-layer="1262" from-port="0" to-layer="1263" to-port="1"/>
		<edge from-layer="1257" from-port="5" to-layer="1264" to-port="0"/>
		<edge from-layer="1263" from-port="2" to-layer="1264" to-port="1"/>
		<edge from-layer="1264" from-port="2" to-layer="1266" to-port="0"/>
		<edge from-layer="1265" from-port="0" to-layer="1266" to-port="1"/>
		<edge from-layer="1266" from-port="2" to-layer="1267" to-port="0"/>
		<edge from-layer="121" from-port="0" to-layer="1267" to-port="1"/>
		<edge from-layer="122" from-port="0" to-layer="1267" to-port="2"/>
		<edge from-layer="123" from-port="0" to-layer="1267" to-port="3"/>
		<edge from-layer="124" from-port="0" to-layer="1267" to-port="4"/>
		<edge from-layer="1267" from-port="5" to-layer="1268" to-port="0"/>
		<edge from-layer="1268" from-port="1" to-layer="1269" to-port="0"/>
		<edge from-layer="117" from-port="0" to-layer="1269" to-port="1"/>
		<edge from-layer="118" from-port="0" to-layer="1269" to-port="2"/>
		<edge from-layer="119" from-port="0" to-layer="1269" to-port="3"/>
		<edge from-layer="120" from-port="0" to-layer="1269" to-port="4"/>
		<edge from-layer="1270" from-port="0" to-layer="1271" to-port="0"/>
		<edge from-layer="1271" from-port="1" to-layer="1273" to-port="0"/>
		<edge from-layer="1272" from-port="0" to-layer="1273" to-port="1"/>
		<edge from-layer="1273" from-port="2" to-layer="1275" to-port="0"/>
		<edge from-layer="1274" from-port="0" to-layer="1275" to-port="1"/>
		<edge from-layer="1269" from-port="5" to-layer="1276" to-port="0"/>
		<edge from-layer="1275" from-port="2" to-layer="1276" to-port="1"/>
		<edge from-layer="1276" from-port="2" to-layer="1278" to-port="0"/>
		<edge from-layer="1277" from-port="0" to-layer="1278" to-port="1"/>
		<edge from-layer="1278" from-port="2" to-layer="1280" to-port="0"/>
		<edge from-layer="1279" from-port="0" to-layer="1280" to-port="1"/>
		<edge from-layer="1280" from-port="2" to-layer="1281" to-port="0"/>
		<edge from-layer="113" from-port="0" to-layer="1281" to-port="1"/>
		<edge from-layer="114" from-port="0" to-layer="1281" to-port="2"/>
		<edge from-layer="115" from-port="0" to-layer="1281" to-port="3"/>
		<edge from-layer="116" from-port="0" to-layer="1281" to-port="4"/>
		<edge from-layer="1282" from-port="0" to-layer="1283" to-port="0"/>
		<edge from-layer="1283" from-port="1" to-layer="1285" to-port="0"/>
		<edge from-layer="1284" from-port="0" to-layer="1285" to-port="1"/>
		<edge from-layer="1285" from-port="2" to-layer="1287" to-port="0"/>
		<edge from-layer="1286" from-port="0" to-layer="1287" to-port="1"/>
		<edge from-layer="1281" from-port="5" to-layer="1288" to-port="0"/>
		<edge from-layer="1287" from-port="2" to-layer="1288" to-port="1"/>
		<edge from-layer="1288" from-port="2" to-layer="1290" to-port="0"/>
		<edge from-layer="1289" from-port="0" to-layer="1290" to-port="1"/>
		<edge from-layer="1290" from-port="2" to-layer="1291" to-port="0"/>
		<edge from-layer="1291" from-port="1" to-layer="1292" to-port="0"/>
		<edge from-layer="109" from-port="0" to-layer="1292" to-port="1"/>
		<edge from-layer="110" from-port="0" to-layer="1292" to-port="2"/>
		<edge from-layer="111" from-port="0" to-layer="1292" to-port="3"/>
		<edge from-layer="112" from-port="0" to-layer="1292" to-port="4"/>
		<edge from-layer="1267" from-port="5" to-layer="1293" to-port="0"/>
		<edge from-layer="1292" from-port="5" to-layer="1293" to-port="1"/>
		<edge from-layer="1293" from-port="2" to-layer="1294" to-port="0"/>
		<edge from-layer="105" from-port="0" to-layer="1294" to-port="1"/>
		<edge from-layer="106" from-port="0" to-layer="1294" to-port="2"/>
		<edge from-layer="107" from-port="0" to-layer="1294" to-port="3"/>
		<edge from-layer="108" from-port="0" to-layer="1294" to-port="4"/>
		<edge from-layer="1231" from-port="5" to-layer="1295" to-port="0"/>
		<edge from-layer="1294" from-port="5" to-layer="1295" to-port="1"/>
		<edge from-layer="1295" from-port="2" to-layer="1296" to-port="0"/>
		<edge from-layer="101" from-port="0" to-layer="1296" to-port="1"/>
		<edge from-layer="102" from-port="0" to-layer="1296" to-port="2"/>
		<edge from-layer="103" from-port="0" to-layer="1296" to-port="3"/>
		<edge from-layer="104" from-port="0" to-layer="1296" to-port="4"/>
		<edge from-layer="1297" from-port="0" to-layer="1298" to-port="0"/>
		<edge from-layer="1298" from-port="1" to-layer="1300" to-port="0"/>
		<edge from-layer="1299" from-port="0" to-layer="1300" to-port="1"/>
		<edge from-layer="1300" from-port="2" to-layer="1302" to-port="0"/>
		<edge from-layer="1301" from-port="0" to-layer="1302" to-port="1"/>
		<edge from-layer="1296" from-port="5" to-layer="1303" to-port="0"/>
		<edge from-layer="1302" from-port="2" to-layer="1303" to-port="1"/>
		<edge from-layer="1303" from-port="2" to-layer="1305" to-port="0"/>
		<edge from-layer="1304" from-port="0" to-layer="1305" to-port="1"/>
		<edge from-layer="1305" from-port="2" to-layer="1307" to-port="0"/>
		<edge from-layer="1306" from-port="0" to-layer="1307" to-port="1"/>
		<edge from-layer="1307" from-port="2" to-layer="1308" to-port="0"/>
		<edge from-layer="97" from-port="0" to-layer="1308" to-port="1"/>
		<edge from-layer="98" from-port="0" to-layer="1308" to-port="2"/>
		<edge from-layer="99" from-port="0" to-layer="1308" to-port="3"/>
		<edge from-layer="100" from-port="0" to-layer="1308" to-port="4"/>
		<edge from-layer="1310" from-port="0" to-layer="1311" to-port="0"/>
		<edge from-layer="1311" from-port="1" to-layer="1313" to-port="0"/>
		<edge from-layer="1312" from-port="0" to-layer="1313" to-port="1"/>
		<edge from-layer="1313" from-port="2" to-layer="1315" to-port="0"/>
		<edge from-layer="1314" from-port="0" to-layer="1315" to-port="1"/>
		<edge from-layer="1315" from-port="2" to-layer="1316" to-port="0"/>
		<edge from-layer="1309" from-port="0" to-layer="1316" to-port="1"/>
		<edge from-layer="1308" from-port="5" to-layer="1317" to-port="0"/>
		<edge from-layer="1316" from-port="2" to-layer="1317" to-port="1"/>
		<edge from-layer="1317" from-port="2" to-layer="1319" to-port="0"/>
		<edge from-layer="1318" from-port="0" to-layer="1319" to-port="1"/>
		<edge from-layer="1319" from-port="2" to-layer="1321" to-port="0"/>
		<edge from-layer="1320" from-port="0" to-layer="1321" to-port="1"/>
		<edge from-layer="1321" from-port="2" to-layer="1322" to-port="0"/>
		<edge from-layer="93" from-port="0" to-layer="1322" to-port="1"/>
		<edge from-layer="94" from-port="0" to-layer="1322" to-port="2"/>
		<edge from-layer="95" from-port="0" to-layer="1322" to-port="3"/>
		<edge from-layer="96" from-port="0" to-layer="1322" to-port="4"/>
		<edge from-layer="1323" from-port="0" to-layer="1324" to-port="0"/>
		<edge from-layer="1324" from-port="1" to-layer="1326" to-port="0"/>
		<edge from-layer="1325" from-port="0" to-layer="1326" to-port="1"/>
		<edge from-layer="1326" from-port="2" to-layer="1328" to-port="0"/>
		<edge from-layer="1327" from-port="0" to-layer="1328" to-port="1"/>
		<edge from-layer="1322" from-port="5" to-layer="1329" to-port="0"/>
		<edge from-layer="1328" from-port="2" to-layer="1329" to-port="1"/>
		<edge from-layer="1329" from-port="2" to-layer="1331" to-port="0"/>
		<edge from-layer="1330" from-port="0" to-layer="1331" to-port="1"/>
		<edge from-layer="1331" from-port="2" to-layer="1332" to-port="0"/>
		<edge from-layer="89" from-port="0" to-layer="1332" to-port="1"/>
		<edge from-layer="90" from-port="0" to-layer="1332" to-port="2"/>
		<edge from-layer="91" from-port="0" to-layer="1332" to-port="3"/>
		<edge from-layer="92" from-port="0" to-layer="1332" to-port="4"/>
		<edge from-layer="1332" from-port="5" to-layer="1333" to-port="0"/>
		<edge from-layer="1333" from-port="1" to-layer="1334" to-port="0"/>
		<edge from-layer="85" from-port="0" to-layer="1334" to-port="1"/>
		<edge from-layer="86" from-port="0" to-layer="1334" to-port="2"/>
		<edge from-layer="87" from-port="0" to-layer="1334" to-port="3"/>
		<edge from-layer="88" from-port="0" to-layer="1334" to-port="4"/>
		<edge from-layer="1335" from-port="0" to-layer="1336" to-port="0"/>
		<edge from-layer="1336" from-port="1" to-layer="1338" to-port="0"/>
		<edge from-layer="1337" from-port="0" to-layer="1338" to-port="1"/>
		<edge from-layer="1338" from-port="2" to-layer="1340" to-port="0"/>
		<edge from-layer="1339" from-port="0" to-layer="1340" to-port="1"/>
		<edge from-layer="1334" from-port="5" to-layer="1341" to-port="0"/>
		<edge from-layer="1340" from-port="2" to-layer="1341" to-port="1"/>
		<edge from-layer="1341" from-port="2" to-layer="1343" to-port="0"/>
		<edge from-layer="1342" from-port="0" to-layer="1343" to-port="1"/>
		<edge from-layer="1343" from-port="2" to-layer="1345" to-port="0"/>
		<edge from-layer="1344" from-port="0" to-layer="1345" to-port="1"/>
		<edge from-layer="1345" from-port="2" to-layer="1346" to-port="0"/>
		<edge from-layer="81" from-port="0" to-layer="1346" to-port="1"/>
		<edge from-layer="82" from-port="0" to-layer="1346" to-port="2"/>
		<edge from-layer="83" from-port="0" to-layer="1346" to-port="3"/>
		<edge from-layer="84" from-port="0" to-layer="1346" to-port="4"/>
		<edge from-layer="1347" from-port="0" to-layer="1348" to-port="0"/>
		<edge from-layer="1348" from-port="1" to-layer="1350" to-port="0"/>
		<edge from-layer="1349" from-port="0" to-layer="1350" to-port="1"/>
		<edge from-layer="1350" from-port="2" to-layer="1352" to-port="0"/>
		<edge from-layer="1351" from-port="0" to-layer="1352" to-port="1"/>
		<edge from-layer="1346" from-port="5" to-layer="1353" to-port="0"/>
		<edge from-layer="1352" from-port="2" to-layer="1353" to-port="1"/>
		<edge from-layer="1353" from-port="2" to-layer="1355" to-port="0"/>
		<edge from-layer="1354" from-port="0" to-layer="1355" to-port="1"/>
		<edge from-layer="1355" from-port="2" to-layer="1356" to-port="0"/>
		<edge from-layer="1356" from-port="1" to-layer="1357" to-port="0"/>
		<edge from-layer="77" from-port="0" to-layer="1357" to-port="1"/>
		<edge from-layer="78" from-port="0" to-layer="1357" to-port="2"/>
		<edge from-layer="79" from-port="0" to-layer="1357" to-port="3"/>
		<edge from-layer="80" from-port="0" to-layer="1357" to-port="4"/>
		<edge from-layer="1332" from-port="5" to-layer="1358" to-port="0"/>
		<edge from-layer="1357" from-port="5" to-layer="1358" to-port="1"/>
		<edge from-layer="1358" from-port="2" to-layer="1359" to-port="0"/>
		<edge from-layer="73" from-port="0" to-layer="1359" to-port="1"/>
		<edge from-layer="74" from-port="0" to-layer="1359" to-port="2"/>
		<edge from-layer="75" from-port="0" to-layer="1359" to-port="3"/>
		<edge from-layer="76" from-port="0" to-layer="1359" to-port="4"/>
		<edge from-layer="1360" from-port="0" to-layer="1361" to-port="0"/>
		<edge from-layer="1361" from-port="1" to-layer="1363" to-port="0"/>
		<edge from-layer="1362" from-port="0" to-layer="1363" to-port="1"/>
		<edge from-layer="1363" from-port="2" to-layer="1365" to-port="0"/>
		<edge from-layer="1364" from-port="0" to-layer="1365" to-port="1"/>
		<edge from-layer="1359" from-port="5" to-layer="1366" to-port="0"/>
		<edge from-layer="1365" from-port="2" to-layer="1366" to-port="1"/>
		<edge from-layer="1366" from-port="2" to-layer="1368" to-port="0"/>
		<edge from-layer="1367" from-port="0" to-layer="1368" to-port="1"/>
		<edge from-layer="1368" from-port="2" to-layer="1370" to-port="0"/>
		<edge from-layer="1369" from-port="0" to-layer="1370" to-port="1"/>
		<edge from-layer="1370" from-port="2" to-layer="1371" to-port="0"/>
		<edge from-layer="69" from-port="0" to-layer="1371" to-port="1"/>
		<edge from-layer="70" from-port="0" to-layer="1371" to-port="2"/>
		<edge from-layer="71" from-port="0" to-layer="1371" to-port="3"/>
		<edge from-layer="72" from-port="0" to-layer="1371" to-port="4"/>
		<edge from-layer="1373" from-port="0" to-layer="1374" to-port="0"/>
		<edge from-layer="1374" from-port="1" to-layer="1376" to-port="0"/>
		<edge from-layer="1375" from-port="0" to-layer="1376" to-port="1"/>
		<edge from-layer="1376" from-port="2" to-layer="1378" to-port="0"/>
		<edge from-layer="1377" from-port="0" to-layer="1378" to-port="1"/>
		<edge from-layer="1378" from-port="2" to-layer="1379" to-port="0"/>
		<edge from-layer="1372" from-port="0" to-layer="1379" to-port="1"/>
		<edge from-layer="1371" from-port="5" to-layer="1380" to-port="0"/>
		<edge from-layer="1379" from-port="2" to-layer="1380" to-port="1"/>
		<edge from-layer="1380" from-port="2" to-layer="1382" to-port="0"/>
		<edge from-layer="1381" from-port="0" to-layer="1382" to-port="1"/>
		<edge from-layer="1382" from-port="2" to-layer="1384" to-port="0"/>
		<edge from-layer="1383" from-port="0" to-layer="1384" to-port="1"/>
		<edge from-layer="1384" from-port="2" to-layer="1385" to-port="0"/>
		<edge from-layer="65" from-port="0" to-layer="1385" to-port="1"/>
		<edge from-layer="66" from-port="0" to-layer="1385" to-port="2"/>
		<edge from-layer="67" from-port="0" to-layer="1385" to-port="3"/>
		<edge from-layer="68" from-port="0" to-layer="1385" to-port="4"/>
		<edge from-layer="1386" from-port="0" to-layer="1387" to-port="0"/>
		<edge from-layer="1387" from-port="1" to-layer="1389" to-port="0"/>
		<edge from-layer="1388" from-port="0" to-layer="1389" to-port="1"/>
		<edge from-layer="1389" from-port="2" to-layer="1391" to-port="0"/>
		<edge from-layer="1390" from-port="0" to-layer="1391" to-port="1"/>
		<edge from-layer="1385" from-port="5" to-layer="1392" to-port="0"/>
		<edge from-layer="1391" from-port="2" to-layer="1392" to-port="1"/>
		<edge from-layer="1392" from-port="2" to-layer="1394" to-port="0"/>
		<edge from-layer="1393" from-port="0" to-layer="1394" to-port="1"/>
		<edge from-layer="1394" from-port="2" to-layer="1395" to-port="0"/>
		<edge from-layer="61" from-port="0" to-layer="1395" to-port="1"/>
		<edge from-layer="62" from-port="0" to-layer="1395" to-port="2"/>
		<edge from-layer="63" from-port="0" to-layer="1395" to-port="3"/>
		<edge from-layer="64" from-port="0" to-layer="1395" to-port="4"/>
		<edge from-layer="1395" from-port="5" to-layer="1396" to-port="0"/>
		<edge from-layer="1396" from-port="1" to-layer="1397" to-port="0"/>
		<edge from-layer="57" from-port="0" to-layer="1397" to-port="1"/>
		<edge from-layer="58" from-port="0" to-layer="1397" to-port="2"/>
		<edge from-layer="59" from-port="0" to-layer="1397" to-port="3"/>
		<edge from-layer="60" from-port="0" to-layer="1397" to-port="4"/>
		<edge from-layer="1398" from-port="0" to-layer="1399" to-port="0"/>
		<edge from-layer="1399" from-port="1" to-layer="1401" to-port="0"/>
		<edge from-layer="1400" from-port="0" to-layer="1401" to-port="1"/>
		<edge from-layer="1401" from-port="2" to-layer="1403" to-port="0"/>
		<edge from-layer="1402" from-port="0" to-layer="1403" to-port="1"/>
		<edge from-layer="1397" from-port="5" to-layer="1404" to-port="0"/>
		<edge from-layer="1403" from-port="2" to-layer="1404" to-port="1"/>
		<edge from-layer="1404" from-port="2" to-layer="1406" to-port="0"/>
		<edge from-layer="1405" from-port="0" to-layer="1406" to-port="1"/>
		<edge from-layer="1406" from-port="2" to-layer="1408" to-port="0"/>
		<edge from-layer="1407" from-port="0" to-layer="1408" to-port="1"/>
		<edge from-layer="1408" from-port="2" to-layer="1409" to-port="0"/>
		<edge from-layer="53" from-port="0" to-layer="1409" to-port="1"/>
		<edge from-layer="54" from-port="0" to-layer="1409" to-port="2"/>
		<edge from-layer="55" from-port="0" to-layer="1409" to-port="3"/>
		<edge from-layer="56" from-port="0" to-layer="1409" to-port="4"/>
		<edge from-layer="1410" from-port="0" to-layer="1411" to-port="0"/>
		<edge from-layer="1411" from-port="1" to-layer="1413" to-port="0"/>
		<edge from-layer="1412" from-port="0" to-layer="1413" to-port="1"/>
		<edge from-layer="1413" from-port="2" to-layer="1415" to-port="0"/>
		<edge from-layer="1414" from-port="0" to-layer="1415" to-port="1"/>
		<edge from-layer="1409" from-port="5" to-layer="1416" to-port="0"/>
		<edge from-layer="1415" from-port="2" to-layer="1416" to-port="1"/>
		<edge from-layer="1416" from-port="2" to-layer="1418" to-port="0"/>
		<edge from-layer="1417" from-port="0" to-layer="1418" to-port="1"/>
		<edge from-layer="1418" from-port="2" to-layer="1419" to-port="0"/>
		<edge from-layer="1419" from-port="1" to-layer="1420" to-port="0"/>
		<edge from-layer="49" from-port="0" to-layer="1420" to-port="1"/>
		<edge from-layer="50" from-port="0" to-layer="1420" to-port="2"/>
		<edge from-layer="51" from-port="0" to-layer="1420" to-port="3"/>
		<edge from-layer="52" from-port="0" to-layer="1420" to-port="4"/>
		<edge from-layer="1395" from-port="5" to-layer="1421" to-port="0"/>
		<edge from-layer="1420" from-port="5" to-layer="1421" to-port="1"/>
		<edge from-layer="1421" from-port="2" to-layer="1422" to-port="0"/>
		<edge from-layer="45" from-port="0" to-layer="1422" to-port="1"/>
		<edge from-layer="46" from-port="0" to-layer="1422" to-port="2"/>
		<edge from-layer="47" from-port="0" to-layer="1422" to-port="3"/>
		<edge from-layer="48" from-port="0" to-layer="1422" to-port="4"/>
		<edge from-layer="1359" from-port="5" to-layer="1423" to-port="0"/>
		<edge from-layer="1422" from-port="5" to-layer="1423" to-port="1"/>
		<edge from-layer="1423" from-port="2" to-layer="1424" to-port="0"/>
		<edge from-layer="41" from-port="0" to-layer="1424" to-port="1"/>
		<edge from-layer="42" from-port="0" to-layer="1424" to-port="2"/>
		<edge from-layer="43" from-port="0" to-layer="1424" to-port="3"/>
		<edge from-layer="44" from-port="0" to-layer="1424" to-port="4"/>
		<edge from-layer="1425" from-port="0" to-layer="1426" to-port="0"/>
		<edge from-layer="1426" from-port="1" to-layer="1428" to-port="0"/>
		<edge from-layer="1427" from-port="0" to-layer="1428" to-port="1"/>
		<edge from-layer="1428" from-port="2" to-layer="1430" to-port="0"/>
		<edge from-layer="1429" from-port="0" to-layer="1430" to-port="1"/>
		<edge from-layer="1424" from-port="5" to-layer="1431" to-port="0"/>
		<edge from-layer="1430" from-port="2" to-layer="1431" to-port="1"/>
		<edge from-layer="1431" from-port="2" to-layer="1433" to-port="0"/>
		<edge from-layer="1432" from-port="0" to-layer="1433" to-port="1"/>
		<edge from-layer="1433" from-port="2" to-layer="1435" to-port="0"/>
		<edge from-layer="1434" from-port="0" to-layer="1435" to-port="1"/>
		<edge from-layer="1435" from-port="2" to-layer="1436" to-port="0"/>
		<edge from-layer="37" from-port="0" to-layer="1436" to-port="1"/>
		<edge from-layer="38" from-port="0" to-layer="1436" to-port="2"/>
		<edge from-layer="39" from-port="0" to-layer="1436" to-port="3"/>
		<edge from-layer="40" from-port="0" to-layer="1436" to-port="4"/>
		<edge from-layer="1438" from-port="0" to-layer="1439" to-port="0"/>
		<edge from-layer="1439" from-port="1" to-layer="1441" to-port="0"/>
		<edge from-layer="1440" from-port="0" to-layer="1441" to-port="1"/>
		<edge from-layer="1441" from-port="2" to-layer="1443" to-port="0"/>
		<edge from-layer="1442" from-port="0" to-layer="1443" to-port="1"/>
		<edge from-layer="1443" from-port="2" to-layer="1444" to-port="0"/>
		<edge from-layer="1437" from-port="0" to-layer="1444" to-port="1"/>
		<edge from-layer="1436" from-port="5" to-layer="1445" to-port="0"/>
		<edge from-layer="1444" from-port="2" to-layer="1445" to-port="1"/>
		<edge from-layer="1445" from-port="2" to-layer="1447" to-port="0"/>
		<edge from-layer="1446" from-port="0" to-layer="1447" to-port="1"/>
		<edge from-layer="1447" from-port="2" to-layer="1449" to-port="0"/>
		<edge from-layer="1448" from-port="0" to-layer="1449" to-port="1"/>
		<edge from-layer="1449" from-port="2" to-layer="1450" to-port="0"/>
		<edge from-layer="33" from-port="0" to-layer="1450" to-port="1"/>
		<edge from-layer="34" from-port="0" to-layer="1450" to-port="2"/>
		<edge from-layer="35" from-port="0" to-layer="1450" to-port="3"/>
		<edge from-layer="36" from-port="0" to-layer="1450" to-port="4"/>
		<edge from-layer="1451" from-port="0" to-layer="1452" to-port="0"/>
		<edge from-layer="1452" from-port="1" to-layer="1454" to-port="0"/>
		<edge from-layer="1453" from-port="0" to-layer="1454" to-port="1"/>
		<edge from-layer="1454" from-port="2" to-layer="1456" to-port="0"/>
		<edge from-layer="1455" from-port="0" to-layer="1456" to-port="1"/>
		<edge from-layer="1450" from-port="5" to-layer="1457" to-port="0"/>
		<edge from-layer="1456" from-port="2" to-layer="1457" to-port="1"/>
		<edge from-layer="1457" from-port="2" to-layer="1459" to-port="0"/>
		<edge from-layer="1458" from-port="0" to-layer="1459" to-port="1"/>
		<edge from-layer="1459" from-port="2" to-layer="1460" to-port="0"/>
		<edge from-layer="29" from-port="0" to-layer="1460" to-port="1"/>
		<edge from-layer="30" from-port="0" to-layer="1460" to-port="2"/>
		<edge from-layer="31" from-port="0" to-layer="1460" to-port="3"/>
		<edge from-layer="32" from-port="0" to-layer="1460" to-port="4"/>
		<edge from-layer="1460" from-port="5" to-layer="1461" to-port="0"/>
		<edge from-layer="1461" from-port="1" to-layer="1462" to-port="0"/>
		<edge from-layer="25" from-port="0" to-layer="1462" to-port="1"/>
		<edge from-layer="26" from-port="0" to-layer="1462" to-port="2"/>
		<edge from-layer="27" from-port="0" to-layer="1462" to-port="3"/>
		<edge from-layer="28" from-port="0" to-layer="1462" to-port="4"/>
		<edge from-layer="1463" from-port="0" to-layer="1464" to-port="0"/>
		<edge from-layer="1464" from-port="1" to-layer="1466" to-port="0"/>
		<edge from-layer="1465" from-port="0" to-layer="1466" to-port="1"/>
		<edge from-layer="1466" from-port="2" to-layer="1468" to-port="0"/>
		<edge from-layer="1467" from-port="0" to-layer="1468" to-port="1"/>
		<edge from-layer="1462" from-port="5" to-layer="1469" to-port="0"/>
		<edge from-layer="1468" from-port="2" to-layer="1469" to-port="1"/>
		<edge from-layer="1469" from-port="2" to-layer="1471" to-port="0"/>
		<edge from-layer="1470" from-port="0" to-layer="1471" to-port="1"/>
		<edge from-layer="1471" from-port="2" to-layer="1473" to-port="0"/>
		<edge from-layer="1472" from-port="0" to-layer="1473" to-port="1"/>
		<edge from-layer="1473" from-port="2" to-layer="1474" to-port="0"/>
		<edge from-layer="21" from-port="0" to-layer="1474" to-port="1"/>
		<edge from-layer="22" from-port="0" to-layer="1474" to-port="2"/>
		<edge from-layer="23" from-port="0" to-layer="1474" to-port="3"/>
		<edge from-layer="24" from-port="0" to-layer="1474" to-port="4"/>
		<edge from-layer="1475" from-port="0" to-layer="1476" to-port="0"/>
		<edge from-layer="1476" from-port="1" to-layer="1478" to-port="0"/>
		<edge from-layer="1477" from-port="0" to-layer="1478" to-port="1"/>
		<edge from-layer="1478" from-port="2" to-layer="1480" to-port="0"/>
		<edge from-layer="1479" from-port="0" to-layer="1480" to-port="1"/>
		<edge from-layer="1474" from-port="5" to-layer="1481" to-port="0"/>
		<edge from-layer="1480" from-port="2" to-layer="1481" to-port="1"/>
		<edge from-layer="1481" from-port="2" to-layer="1483" to-port="0"/>
		<edge from-layer="1482" from-port="0" to-layer="1483" to-port="1"/>
		<edge from-layer="1483" from-port="2" to-layer="1484" to-port="0"/>
		<edge from-layer="1484" from-port="1" to-layer="1485" to-port="0"/>
		<edge from-layer="17" from-port="0" to-layer="1485" to-port="1"/>
		<edge from-layer="18" from-port="0" to-layer="1485" to-port="2"/>
		<edge from-layer="19" from-port="0" to-layer="1485" to-port="3"/>
		<edge from-layer="20" from-port="0" to-layer="1485" to-port="4"/>
		<edge from-layer="1460" from-port="5" to-layer="1486" to-port="0"/>
		<edge from-layer="1485" from-port="5" to-layer="1486" to-port="1"/>
		<edge from-layer="1486" from-port="2" to-layer="1487" to-port="0"/>
		<edge from-layer="13" from-port="0" to-layer="1487" to-port="1"/>
		<edge from-layer="14" from-port="0" to-layer="1487" to-port="2"/>
		<edge from-layer="15" from-port="0" to-layer="1487" to-port="3"/>
		<edge from-layer="16" from-port="0" to-layer="1487" to-port="4"/>
		<edge from-layer="1424" from-port="5" to-layer="1488" to-port="0"/>
		<edge from-layer="1487" from-port="5" to-layer="1488" to-port="1"/>
		<edge from-layer="1488" from-port="2" to-layer="1489" to-port="0"/>
		<edge from-layer="9" from-port="0" to-layer="1489" to-port="1"/>
		<edge from-layer="10" from-port="0" to-layer="1489" to-port="2"/>
		<edge from-layer="11" from-port="0" to-layer="1489" to-port="3"/>
		<edge from-layer="12" from-port="0" to-layer="1489" to-port="4"/>
		<edge from-layer="1490" from-port="0" to-layer="1491" to-port="0"/>
		<edge from-layer="1491" from-port="1" to-layer="1493" to-port="0"/>
		<edge from-layer="1492" from-port="0" to-layer="1493" to-port="1"/>
		<edge from-layer="1493" from-port="2" to-layer="1495" to-port="0"/>
		<edge from-layer="1494" from-port="0" to-layer="1495" to-port="1"/>
		<edge from-layer="1489" from-port="5" to-layer="1496" to-port="0"/>
		<edge from-layer="1495" from-port="2" to-layer="1496" to-port="1"/>
		<edge from-layer="1496" from-port="2" to-layer="1498" to-port="0"/>
		<edge from-layer="1497" from-port="0" to-layer="1498" to-port="1"/>
		<edge from-layer="1498" from-port="2" to-layer="1500" to-port="0"/>
		<edge from-layer="1499" from-port="0" to-layer="1500" to-port="1"/>
		<edge from-layer="1500" from-port="2" to-layer="1501" to-port="0"/>
		<edge from-layer="5" from-port="0" to-layer="1501" to-port="1"/>
		<edge from-layer="6" from-port="0" to-layer="1501" to-port="2"/>
		<edge from-layer="7" from-port="0" to-layer="1501" to-port="3"/>
		<edge from-layer="8" from-port="0" to-layer="1501" to-port="4"/>
		<edge from-layer="1503" from-port="0" to-layer="1504" to-port="0"/>
		<edge from-layer="1504" from-port="1" to-layer="1506" to-port="0"/>
		<edge from-layer="1505" from-port="0" to-layer="1506" to-port="1"/>
		<edge from-layer="1506" from-port="2" to-layer="1508" to-port="0"/>
		<edge from-layer="1507" from-port="0" to-layer="1508" to-port="1"/>
		<edge from-layer="1508" from-port="2" to-layer="1509" to-port="0"/>
		<edge from-layer="1502" from-port="0" to-layer="1509" to-port="1"/>
		<edge from-layer="1501" from-port="5" to-layer="1510" to-port="0"/>
		<edge from-layer="1509" from-port="2" to-layer="1510" to-port="1"/>
		<edge from-layer="1510" from-port="2" to-layer="1512" to-port="0"/>
		<edge from-layer="1511" from-port="0" to-layer="1512" to-port="1"/>
		<edge from-layer="1512" from-port="2" to-layer="1513" to-port="0"/>
		<edge from-layer="1" from-port="0" to-layer="1513" to-port="1"/>
		<edge from-layer="2" from-port="0" to-layer="1513" to-port="2"/>
		<edge from-layer="3" from-port="0" to-layer="1513" to-port="3"/>
		<edge from-layer="4" from-port="0" to-layer="1513" to-port="4"/>
		<edge from-layer="1514" from-port="0" to-layer="1515" to-port="0"/>
		<edge from-layer="1515" from-port="1" to-layer="1517" to-port="0"/>
		<edge from-layer="1516" from-port="0" to-layer="1517" to-port="1"/>
		<edge from-layer="1517" from-port="2" to-layer="1519" to-port="0"/>
		<edge from-layer="1518" from-port="0" to-layer="1519" to-port="1"/>
		<edge from-layer="1513" from-port="5" to-layer="1520" to-port="0"/>
		<edge from-layer="1519" from-port="2" to-layer="1520" to-port="1"/>
		<edge from-layer="1520" from-port="2" to-layer="1521" to-port="0"/>
		<edge from-layer="0" from-port="0" to-layer="1521" to-port="1"/>
		<edge from-layer="1521" from-port="2" to-layer="1522" to-port="0"/>
	</edges>
	<meta_data>
		<MO_version value="custom_HEAD_149c43044cb1e8ed8cd4f3f196b23f7b3f129a36"/>
		<cli_parameters>
			<caffe_parser_path value="DIR"/>
			<data_type value="FP16"/>
			<disable_nhwc_to_nchw value="False"/>
			<disable_omitting_optional value="False"/>
			<disable_resnet_optimization value="False"/>
			<disable_weights_compression value="False"/>
			<enable_concat_optimization value="False"/>
			<enable_flattening_nested_params value="False"/>
			<enable_ssd_gluoncv value="False"/>
			<extensions value="DIR"/>
			<framework value="onnx"/>
			<freeze_placeholder_with_value value="{}"/>
			<generate_deprecated_IR_V7 value="False"/>
			<input value="0"/>
			<input_model value="DIR/Mobilenet_se_focal_121000.onnx"/>
			<input_model_is_text value="False"/>
			<input_shape value="[1,3,128,128]"/>
			<k value="DIR/CustomLayersMapping.xml"/>
			<keep_shape_ops value="True"/>
			<legacy_ir_generation value="False"/>
			<legacy_mxnet_model value="False"/>
			<log_level value="ERROR"/>
			<mean_scale_values value="{'0': {'mean': None, 'scale': array([255.])}}"/>
			<mean_values value="()"/>
			<model_name value="face-reidentification-retail-0095"/>
			<output_dir value="DIR"/>
			<placeholder_data_types value="{}"/>
			<placeholder_shapes value="{'0': array([  1,   3, 128, 128])}"/>
			<progress value="False"/>
			<remove_memory value="False"/>
			<remove_output_softmax value="False"/>
			<reverse_input_channels value="True"/>
			<save_params_from_nd value="False"/>
			<scale_values value="0[255.0]"/>
			<silent value="False"/>
			<static_shape value="False"/>
			<stream_output value="False"/>
			<transform value=""/>
			<unset unset_cli_parameters="batch, counts, disable_fusing, disable_gfusing, finegrain_fusing, input_checkpoint, input_meta_graph, input_proto, input_symbol, mean_file, mean_file_offsets, move_to_preprocess, nd_prefix_name, output, pretrained_model_name, saved_model_dir, saved_model_tags, scale, tensorboard_logdir, tensorflow_custom_layer_libraries, tensorflow_custom_operations_config_update, tensorflow_object_detection_api_pipeline_config, tensorflow_use_custom_operations_config, transformations_config"/>
		</cli_parameters>
	</meta_data>
	<quantization_parameters>
		<config>{
		'compression': {
			'algorithms': [
				{
					'name': 'DefaultQuantization',
					'params': {
						'preset': 'performance',
						'stat_subset_size': 300
					}
				}
			],
			'dump_intermediate_model': true
		},
		'engine': {
			'models': [
				{
					'datasets': [
						{
							'name': 'LFW',
							'data_source': 'PATH',
							'annotation_conversion': {
								'converter': 'lfw',
								'pairs_file': 'PATH',
								'landmarks_file': 'PATH'
							},
							'annotation': 'PATH',
							'metrics': [
								{
									'type': 'pairwise_accuracy_subsets'
								}
							],
							'preprocessing': [
								{
									'size': 400,
									'type': 'point_alignment'
								},
								{
									'size': 128,
									'type': 'resize'
								}
							],
							'_command_line_mapping': {
								'pairs_file': 'PATH',
								'landmarks_file': 'PATH'
							}
						}
					],
					'launchers': [
						{
							'adapter': 'reid',
							'framework': 'dlsdk',
							'device': 'CPU'
						}
					],
					'name': 'face-reidentification-retail-0095'
				}
			],
			'stat_requests_number': null,
			'eval_requests_number': null,
			'type': 'accuracy_checker'
		}
	}</config>
		<version value="1.0"/>
		<cli_params value="{'quantize': None, 'preset': None, 'model': None, 'weights': None, 'name': None, 'ac_config': None, 'max_drop': None, 'evaluate': False, 'output_dir': 'PATH', 'direct_dump': True, 'log_level': 'INFO', 'pbar': False, 'stream_output': False, 'keep_uncompressed_weights': False}"/>
	</quantization_parameters>
</net>
